weights6.npy (npy, 51976 bytes, 1 tensors)

array (column-major) f8 [1, 6487]
0.32479211409291436 0.40787111167995693 0.6551741724286935 0.2584928337446738 -0.1207038517412166 0.09488053660411909 0.33194510156390694 -0.5807090955175719
0.5509257770956142 -0.3612173210937276 0.16273211622621486 0.25497757637424934 -0.7282452881936007 0.3462782271616346 -0.24136427259710677 0.2817547821071115
1.4551548832984678 -0.9130527470927956 -1.1568352143647653 0.38389091519482355 -0.5105478635115195 -0.3439191489230123 1.0007884228614095 -0.030660469263072417
-0.5209923035054026 0.4262223228677799 0.06736019251523141 1.0864615328655067 -0.3635006191616648 -0.7968357913358624 -0.09678897837008843 0.23026010031525476
0.5767626640001672 0.17312188265223333 0.2039536862102808 0.45623998000240085 -0.20643332416872678 -0.32685878882736036 -0.07455067024637617 0.0362137892087594
0.5957904233948491 -0.31535096082995107 -0.4243675436351823 -0.008761324592260242 -0.04481911546256208 -0.45780758833380075 -0.6472325360796924 0.45957548711813173
0.407872184700006 0.17661539085547887 -0.07802389278767626 -0.1840317753374671 0.05909119862206808 0.22819079424255032 0.3499654996437488 0.025387313744420183
0.10612787621916478 0.15438534715748653 0.21008819690243838 0.38921994175403285 -0.5576989751993126 -0.1307518002115179 0.05363099233923887 -0.20812605858991298
-0.6422922001463754 0.46525786328799373 -0.08403575468856922 0.2070569066998668 -0.49111803061801734 -0.11488089608238077 -0.38673198106398565 -0.005578915314257548
0.46957559310352426 -0.3023840998724999 0.3340553768257251 -0.1449248938511698 -0.26636489847495093 -0.2271608474805263 -0.5268038314244655 -0.23902219697919436
-0.00045542120648773985 3.2579896406348343e-06 -3.5367136998181317e-08 -3.914909814190327e-08 -1.1098942791159797e-12 -3.746299814517082e-10 4.1339321282436755e-15 -0.30377791033756496
-0.08780307570193469 1.0842021724855044e-19 0.0 0.21565730318271611 -0.02710820503218538 -0.0007774824433174831 0.0 0.0
0.0 0.0 0.0 0.0 0.0 0.0 0.0 -0.13274195929631563
-0.017587216370339626 0.0 0.0 0.1736981000485802 -0.16900760934810105 -0.0017221727239282365 6.776263578034403e-20 0.0
-0.004322478084765051 0.001151420493251088 -0.007748584964237215 0.0 0.005157563972761522 0.08767858753694599 0.009145605271421036 -0.0028739867755009666
0.0 0.0 0.0 0.10965478274732571 -0.11484039191535624 -0.003929791325287683 0.0 0.024539611278954643
-0.1120268968093856 -0.0899510608205198 -0.009249565174942614 0.0 -3.3881317890172014e-21 0.0006991082016637262 -0.0022912569060738797 0.0
0.0 0.0 0.0 0.0527948456031137 0.019902808918594084 0.0 0.0 0.05256178395792274
0.17136881830069642 -0.03097078265120967 -0.0036252581848032353 -0.004524621060030232 0.08002944847350724 -0.06146368438271462 -0.027282767790171848 0.2369148769033508
-0.09071777168627267 -8.673617379884035e-19 0.0 -0.02942814573994325 -0.03787743077925199 -0.003693041605758049 0.0 0.0
0.002578781986380761 0.0 5.421010862427522e-20 0.0 0.0 0.0 0.0 -0.04657017956705408
-0.01359181490639148 0.0 0.0 -0.16598810216543247 -0.03059584338676678 -0.0028314909759235784 -1.4907779871675686e-19 0.0
0.004798981317586357 -0.0006661394906450298 -0.0011695226741020178 0.0 0.0 0.07478467760504218 0.011724387257801797 0.014426470858694796
0.0 0.0 0.0 0.07891729508704562 -0.09182706026321666 -0.005189327180240194 0.0 0.0
-0.10797977083330755 -0.0497791384323214 -0.0038324123484455154 0.0 0.0 0.012690564559959577 -0.0030348282558923783 0.0
0.0 0.0 0.0 0.08458678006362258 0.04968155028248278 0.0 0.0 0.06644163750908831
0.03406308603707582 -0.03198324230066533 -0.0028919131755058176 -0.005465939755138092 0.05249514960898346 -0.06011081859127834 -0.15046727507480476 0.0007825494133587101
-0.04046182788785092 -5.149960319306146e-19 0.0 -0.15455940859182063 -0.02362835171735684 -0.006997341989857335 -0.001360594275805596 0.0
0.005157563972761522 0.0 -2.168404344971009e-19 0.0 0.0 0.0 -1.3552527156068805e-19 0.4597088721049011
-0.011628193397459904 0.0 0.0 -0.4214354189902285 -0.0642973445170747 -0.005741118056701645 -5.495304280355465e-05 0.0
0.03437969463621677 0.0111791678221781 -8.242956420533333e-05 0.0 0.002578781986380761 0.041260511782092175 0.002578781986380762 0.10442043405078674
0.0 0.0 0.0 0.04075372246568885 -0.252655270633073 -0.0022959507732172963 0.0 0.0
00000000: f3c6 01dd 64c9 d43f 5082 696f 8f1a da3f
00000010: ba7b 78d3 2ff7 e43f 62c2 cb86 258b d03f
00000020: 6bd1 ba97 72e6 bebf f7da bd41 174a b83f
00000030: 4333 d2aa 963e d53f 559b b73d 2b95 e2bf
00000040: 02c5 6418 2fa1 e13f a229 3641 2f1e d7bf
00000050: cca8 99ee 67d4 c43f 5668 ef77 8d51 d03f
00000060: 573e 0810 c94d e7bf 1678 3e27 6c29 d63f
00000070: 871b 9d44 06e5 cebf cb10 a935 4508 d23f
00000080: 191b a67c 5048 f73f 242b 0965 ba37 edbf
00000090: d1ec 48a4 6582 f2bf d891 7f33 ab91 d83f
000000a0: 8463 1a79 6856 e0bf 61eb 4576 c502 d6bf
000000b0: 967b a6b8 3a03 f03f 5f44 0f43 7565 9fbf
000000c0: c7bf 200d f8ab e0bf 83b4 62fe 3947 db3f
000000d0: 11ba e77f 843e b13f 624f 007d 2562 f13f
000000e0: a901 d819 9843 d7bf e03b 02c6 ad7f e9bf
000000f0: d478 b698 29c7 b8bf d3be 36b8 2979 cd3f
00000100: dfe7 6df9 d674 e23f 264d 1b9c db28 c63f
00000110: 9dfd 1586 271b ca3f 7c3b 4f2c 0933 dd3f
00000120: d6fb 0d3c 686c cabf 9f1d 1b20 41eb d4bf
00000130: 8762 9ab2 c015 b3bf 51b8 a120 9d8a a23f
00000140: 2107 f813 b710 e33f 5eb7 e1cb b52e d4bf
00000150: cf67 597c d628 dbbf 9847 bf14 75f1 81bf
00000160: ba71 4bf6 87f2 a6bf 8a46 f032 b84c ddbf
00000170: 48d2 eb01 21b6 e4bf 21cd cd4d af69 dd3f
00000180: a503 8fef 931a da3f a9e6 d847 559b c63f
00000190: e565 d4b3 5ff9 b3bf 1de7 3f6c 5a8e c7bf
000001a0: b95e 209b 3341 ae3f f98f 421f 5b35 cd3f
000001b0: 52af ecb1 d565 d63f 27f3 0fc9 21ff 993f
000001c0: ca24 8e4d 322b bb3f 08f2 8228 e6c2 c33f
000001d0: c75c 7c87 2be4 ca3f d236 32c2 fae8 d83f
000001e0: e7cc 6f85 abd8 e1bf ac9a e698 79bc c0bf
000001f0: 4351 4c7c 8575 ab3f 3166 8beb dfa3 cabf
00000200: a158 435f a88d e4bf 67d7 c1ea c8c6 dd3f
00000210: 6c03 1502 5e83 b5bf bdea 5739 d780 ca3f
00000220: 6bbd fe51 7a6e dfbf 6be7 9b9b d568 bdbf
00000230: ce2c bf7e 37c0 d8bf d975 26ad ead9 76bf
00000240: be48 d8c9 860d de3f 2619 f2d6 425a d3bf
00000250: 993e a1cd 2961 d53f 28c8 bb1f e68c c2bf
00000260: 4425 f05b 1f0c d1bf 0325 6e4d 9b13 cdbf
00000270: b904 6cb5 93db e0bf 4898 8583 4798 cebf
00000280: e9ac 1130 b3d8 3dbf df51 1cbf 7a54 cb3e
00000290: cd28 0382 d2fc 62be 4a87 9b6f 9c04 65be
000002a0: fb9d 73fb 8486 73bd fbd9 e271 8fbe f9bd
000002b0: 49e4 6568 199e f23c 7669 89e7 1871 d3bf
000002c0: 08c6 a02a 437a b6bf 0000 0000 0000 003c
000002d0: 0000 0000 0000 0000 f31a 2894 a89a cb3f
000002e0: 4518 44d8 40c2 9bbf c2dd 68d5 fe79 49bf
000002f0: 0000 0000 0000 0000 0000 0000 0000 0000
00000300: 0000 0000 0000 0000 0000 0000 0000 0000
00000310: 0000 0000 0000 0000 0000 0000 0000 0000
00000320: 0000 0000 0000 0000 0000 0000 0000 0000
00000330: 0000 0000 0000 0000 a508 fe42 b0fd c0bf
00000340: 759a 8d1c 6202 92bf 0000 0000 0000 0000
00000350: 0000 0000 0000 0000 a701 8b45 bd3b c63f
00000360: 326e 7695 0aa2 c5bf 5adb bfe1 5037 5cbf
00000370: 0000 0000 0000 f43b 0000 0000 0000 0000
00000380: 0519 3060 72b4 71bf 6981 3257 68dd 523f
00000390: 59d3 2ff0 fabc 7fbf 0000 0000 0000 0000
000003a0: 49cc 7009 1920 753f 16d9 079a 1a72 b63f
000003b0: b6d0 575c eeba 823f c69b b7e6 2f8b 67bf
000003c0: 0000 0000 0000 0000 0000 0000 0000 0000
000003d0: 0000 0000 0000 0000 8cef bff9 5512 bc3f
000003e0: 8149 890f 2e66 bdbf 6b31 8e53 af18 70bf
000003f0: 0000 0000 0000 0000 3d41 996f e920 993f
00000400: e094 1172 cbad bcbf 9df2 7660 0807 b7bf
00000410: 56c5 6d9f 6ff1 82bf 0000 0000 0000 0000
00000420: 0000 0000 0000 b0bb 52c3 666e 8be8 463f
00000430: cd68 4e2f 1dc5 62bf 0000 0000 0000 0000
00000440: 0000 0000 0000 0000 0000 0000 0000 0000
00000450: 0000 0000 0000 0000 3786 860e ed07 ab3f
00000460: a097 9de5 6661 943f 0000 0000 0000 0000
00000470: 0000 0000 0000 0000 acc5 3cce 60e9 aa3f
00000480: 95ec 13d7 69ef c53f 1f50 790a ceb6 9fbf
00000490: 6233 fcaa b7b2 6dbf da88 acb7 6888 72bf
000004a0: 181f e957 cf7c b43f 6b7f a104 2b78 afbf
000004b0: 6dd3 9c8d 03f0 9bbf 4d2d 1e08 3a53 ce3f
000004c0: 35fc 8ea6 4739 b7bf 0000 0000 0000 30bc
000004d0: 0000 0000 0000 0000 44d1 236e 6922 9ebf
000004e0: e122 e8ac ab64 a3bf 6087 6c9d de40 6ebf
000004f0: 0000 0000 0000 0000 0000 0000 0000 0000
00000500: 49cc 7009 1920 653f 0000 0000 0000 0000
00000510: 0000 0000 0000 f03b 0000 0000 0000 0000
00000520: 0000 0000 0000 0000 0000 0000 0000 0000
00000530: 0000 0000 0000 0000 3b2f 6bec 0bd8 a7bf
00000540: b640 2184 06d6 8bbf 0000 0000 0000 0000
00000550: 0000 0000 0000 0000 8cae 291f 193f c5bf
00000560: 3b74 f54a 8454 9fbf b310 7f24 1132 67bf
00000570: 0000 0000 0000 06bc 0000 0000 0000 0000
00000580: e4a7 02bd 18a8 733f d3ad d7a9 fbd3 45bf
00000590: c6dc c768 5529 53bf 0000 0000 0000 0000
000005a0: 0000 0000 0000 0000 2a39 8eb0 1625 b33f
000005b0: c803 b49e f402 883f 9a40 4724 a08b 8d3f
000005c0: 0000 0000 0000 0000 0000 0000 0000 0000
000005d0: 0000 0000 0000 0000 22d6 7c81 ec33 b43f
000005e0: eae4 b76c fa81 b7bf 5321 7068 6741 75bf
000005f0: 0000 0000 0000 0000 0000 0000 0000 0000
00000600: 37cf 5bf0 8fa4 bbbf 6004 2eb7 a67c a9bf
00000610: 9f8a 71b6 2665 6fbf 0000 0000 0000 0000
00000620: 0000 0000 0000 0000 96bd 05be 82fd 893f
00000630: bc04 7503 7fdc 68bf 0000 0000 0000 0000
00000640: 0000 0000 0000 0000 0000 0000 0000 0000
00000650: 0000 0000 0000 0000 8c15 0cae 7aa7 b53f
00000660: 400e 5b33 dc6f a93f 0000 0000 0000 0000
00000670: 0000 0000 0000 0000 7bb8 31b4 5102 b13f
00000680: fa65 0f81 b770 a13f 151e 6787 1b60 a0bf
00000690: a897 5f10 c8b0 67bf 7ef5 d707 7463 76bf
000006a0: 0bd6 89ed a4e0 aa3f 147d f85f d8c6 aebf
000006b0: 4542 c8fc 8242 c3bf 4c0a a611 80a4 493f
000006c0: d186 07a7 69b7 a4bf 0000 0000 0000 23bc
000006d0: 0000 0000 0000 0000 bd71 984a 9ac8 c3bf
000006e0: d2a8 89d7 0732 98bf 6bf9 15b0 3ea9 7cbf
000006f0: 0cc2 bbfa be4a 56bf 0000 0000 0000 0000
00000700: 49cc 7009 1920 753f 0000 0000 0000 0000
00000710: 0000 0000 0000 10bc 0000 0000 0000 0000
00000720: 0000 0000 0000 0000 0000 0000 0000 0000
00000730: 0000 0000 0000 04bc 3ec8 d7c2 de6b dd3f
00000740: 3e48 d4b2 85d0 87bf 0000 0000 0000 0000
00000750: 0000 0000 0000 0000 081a 7c43 ccf8 dabf
00000760: a0a4 eb6f ca75 b0bf 8e73 bca4 ff83 77bf
00000770: 597b 5a2c accf 0cbf 0000 0000 0000 0000
00000780: 29d1 3720 379a a13f c4c0 8a81 1ae5 863f
00000790: e6dc 4321 c19b 15bf 0000 0000 0000 0000
000007a0: 49cc 7009 1920 653f 49cc 7009 1920 a53f
000007b0: 4bcc 7009 1920 653f ca41 482d 4cbb ba3f
000007c0: 0000 0000 0000 0000 0000 0000 0000 0000
000007d0: 0000 0000 0000 0000 9d5c 5c02 acdd a43f
000007e0: 2efd 2103 812b d0bf d684 7e2f f5ce 62bf
000007f0: 0000 0000 0000 0000 0000 0000 0000 0000
