weights2.npy (npy, 51976 bytes, 1 tensors)

array (column-major) f8 [1, 6487]
00000000: 9413 7d0d 4b1c ba3f 81b2 1ce2 036c 683f
00000010: 7e70 fff7 0e08 b73f bc4a 6b31 90a8 c03f
00000020: 54e6 3a60 2860 bf3f dcfe 9c59 7a0d c43f
00000030: aa73 9be8 ab6c a5bf 0e10 65c1 4146 c1bf
00000040: c8d4 1b91 33ae c5bf 264e 4c09 8677 b6bf
00000050: 34f1 9a79 a017 babf 3f54 5144 66cf b1bf
00000060: 5b61 d636 81d3 b83f 08aa f624 89d0 bb3f
00000070: 840d 9c2d 8a0f d33f 3752 9fc2 7e26 b33f
00000080: ae4b 8ecd 3d52 ad3f 192f 890b 0245 a13f
00000090: 1822 6834 909f a2bf 391c dd16 ab15 99bf
000000a0: 1f3f 689c 6390 90bf 4939 04af 0251 a13f
000000b0: a00a 72e4 61b8 a4bf c795 445e f19e 75bf
000000c0: f5f6 0933 5b8d b33f 46b2 62be 4f29 ba3f
000000d0: 8f9e 568e d336 a13f 2100 cb8f 7725 90bf
000000e0: e8ca 191a 8cbe ab3f 81f7 48ef 17f4 a03f
000000f0: f225 323b ac72 a83f aaf8 8ca5 dc0a aebf
00000100: af70 290e e7ce b1bf 8f7a e41a f062 b3bf
00000110: 98f9 e3f5 6bc0 b0bf f635 0003 9ef4 c4bf
00000120: bceb 817a b35d a2bf 3fcc 6f26 dd8d 9dbf
00000130: bc95 0451 92e3 b8bf 1944 62e6 6c33 b5bf
00000140: bcc8 b88e 7979 afbf 0211 d15c 19cd 933f
00000150: d0c5 8527 f98e 823f 2a16 25d2 d621 43bf
00000160: 9208 d30c 2b64 883f 3562 6b57 f774 bc3f
00000170: f32c df21 8e2d 953f e8c7 81fd 611d bcbf
00000180: 5ad6 4600 12b3 b6bf cf7b 325b 5f02 b5bf
00000190: 8d99 ca45 5187 bdbf 414c cf04 82fa bdbf
000001a0: f76f c4a5 efcc afbf 821b 9700 f8f6 b13f
000001b0: d178 f1ef f7ea ab3f 9285 12f2 5bce a03f
000001c0: 0376 ce15 b301 963f d27c e0eb d916 863f
000001d0: 9a44 9a92 bc26 b7bf 512c b299 ddd2 b03f
000001e0: 0d4b 72b6 269f a2bf c722 6fb6 f26f a5bf
000001f0: 977f 61ee 1fec 6a3f 02da b4f8 1863 8a3f
00000200: d87a 7194 aca5 cdbf ae48 e443 071d aabf
00000210: c2ef 97a7 dc4d b6bf 33f7 e305 c44f c6bf
00000220: bbbd 8592 256a 78bf 0225 bdef a86d a43f
00000230: 3b8d 37ba 2c9c b83f 4b95 b986 ddf6 b63f
00000240: 8829 1890 1cc8 a53f e534 c084 0dc3 a43f
00000250: b83b 724d 53e3 9a3f f055 84bd 5499 92bf
00000260: 1d25 71b3 03c8 b4bf 4bdf 9721 9a11 883f
00000270: 0929 b1cd 3a07 b23f 5dbe 785b c5e3 a53f
00000280: ec51 5091 9c9d d0be 5b83 943a fffe 7a3e
00000290: 4403 1f8f 8657 45be 1d3c e0a7 757e 3fbe
000002a0: 53f4 749b 3f94 49bd edc7 53e4 dc13 e5bd
000002b0: f45b b91f df1a d8bc 6a24 ef28 6b31 a83f
000002c0: 315e a3b4 d7eb 33bf e230 f056 847d 36bf
000002d0: 0000 0000 0000 ecbb cc58 30f1 d5f4 58bf
000002e0: 972f ad9b 20b2 76bf 51c1 8d79 720e 51bf
000002f0: 51e5 34b0 cee7 32bf 0000 0000 0000 0000
00000300: 0000 0000 0000 0000 0000 0000 0000 0000
00000310: 52e5 34b0 cee7 22bf 0000 0000 0000 0000
00000320: 0000 0000 0000 0000 0000 0000 0000 0000
00000330: 0000 0000 0000 0000 5f3c aa70 dd7a c1bf
00000340: 6b26 8b0c 0c23 77bf a424 3441 23de 50bf
00000350: 0000 0000 0000 0000 d706 5869 b2cd 92bf
00000360: 1ec2 4e38 c3aa 9bbf 7cd2 3e3b 7a90 8cbf
00000370: 52d0 3e71 4573 66bf 0000 0000 0000 0000
00000380: 01b9 c3da 2083 62bf e711 d327 396a 78bf
00000390: e206 aa9d 1c3b 59bf 0000 0000 0000 0000
000003a0: 9463 a54b de9e fcbe bdb9 5f30 cc68 3ebf
000003b0: 5950 a439 2522 8abf d277 7bc7 9860 74bf
000003c0: 0000 0000 0000 0000 0000 0000 0000 0000
000003d0: 0000 0000 0000 0000 b94d 54cf 8027 87bf
000003e0: 6449 0235 cea7 85bf 2edc 2d5c bdcd 69bf
000003f0: e030 f056 847d 36bf 0000 0000 0060 f03b
00000400: 8bd3 fc28 b622 86bf 66ba 91db e598 89bf
00000410: 7a23 fbbf 42ab 53bf 0000 0000 0000 0000
00000420: 0000 0000 0000 0000 54d0 fcb8 ecdf 63bf
00000430: da9c 4d1c 0dac 46bf 0000 0000 0000 0000
00000440: 0000 0000 0000 0000 0000 0000 0000 0000
00000450: 0000 0000 0000 0000 e8f2 0271 6c0a b2bf
00000460: 6bde e591 316f 6fbf 0f49 d221 2070 17bf
00000470: 0000 0000 0000 0000 5e38 03e4 dbc2 40bf
00000480: db00 b2f6 254d 803f b47c 4313 b577 713f
00000490: 7bc3 a3e0 a7df 00bf 0000 0000 0000 c0bb
000004a0: f457 0fcd d181 5cbf 4d3f 1e30 b6fa a3bf
000004b0: 2b42 df73 a7dc a33f ff9e 0cc2 c2d5 bb3f
000004c0: 6da9 90f5 bcdf 61bf 10de ee29 702b 41bf
000004d0: edee 5968 388c e3be fca9 4637 0087 693f
000004e0: 4334 fa8b d903 23bf eea7 3241 5c65 6cbf
000004f0: 1d43 0acd 4b86 38bf 0000 0000 0000 0000
00000500: 9463 a54b de9e ecbe 0000 0000 0000 0000
00000510: 61c4 9f2f 9d6c 49bf 0000 0000 0000 0000
00000520: 0000 0000 0000 0000 0000 0000 0000 0000
00000530: 0000 0000 0000 0000 d072 e019 1d67 c0bf
00000540: be96 f1f8 fafc 85bf 55a8 8899 07c9 71bf
00000550: 0000 0000 0000 0000 b47b fade 32b2 b2bf
00000560: ab25 0537 138a 9fbf 8ddb 7659 f48d 89bf
00000570: a648 2eda d48a 70bf 0000 0000 0000 0000
00000580: c685 6780 0e7c 48bf 757b 260c db7f 76bf
00000590: e206 aa9d 1c3b 69bf 0000 0000 0000 0000
000005a0: 0000 0000 0000 0000 38e2 8d74 f9ef 39bf
000005b0: e4ee 934e 1321 99bf 68c4 d9b3 6efa 7ebf
000005c0: 0000 0000 0000 0000 0000 0000 0000 0000
000005d0: 0000 0000 0000 0000 70a2 9eee b077 8cbf
000005e0: 41ad 132f 6c20 7fbf eb8b d33f 18a7 6bbf
000005f0: e030 f056 847d 36bf 0000 0000 00f0 f3bb
00000600: 0d5f 88a5 cdb6 95bf 0e37 c428 838e 86bf
00000610: ce40 3ccc 2df3 61bf 0000 0000 0000 0000
00000620: 0000 0000 0000 0000 a46f 6a0c db2c 61bf
00000630: fd5b 4d49 7b62 37bf 0000 0000 0000 0000
00000640: 0000 0000 0000 0000 0000 0000 0000 0000
00000650: 0000 0000 0000 0000 acb6 9056 7fb7 a1bf
00000660: a572 d24c 6dd2 71bf 0000 0000 0000 0000
00000670: 0000 0000 0000 0000 0c27 c41b 7441 46bf
00000680: d4a8 fbc1 7b7b 983f 1d40 30bf 4fd4 543f
00000690: dfe8 538c 4d30 4fbf 0000 0000 0000 0000
000006a0: 1077 02e9 ea9f 4bbf cc36 f29d 5a77 a6bf
000006b0: 2d87 437a 6828 853f 98fe c03b 998f af3f
000006c0: 792c 7d47 cf04 77bf c93b c446 edc9 46bf
000006d0: 982c 6575 bffd 15bf dcd4 60f0 4ba3 56bf
000006e0: ced9 bf76 da49 5dbf 09f9 76db 785d 76bf
000006f0: 585d a4a6 c533 4abf 0000 0000 0000 0000
00000700: 9463 a54b de9e fcbe 0000 0000 0000 0000
00000710: 168b 9283 a9b2 44bf 0000 0000 0000 0000
00000720: 0000 0000 0000 0000 0000 0000 0000 0000
00000730: 0000 0000 0000 d8bb 5054 99d4 06be a7bf
00000740: f288 3016 7211 8fbf 0555 5131 258c 7cbf
00000750: 0000 0000 0000 0000 15ea 5c5a 30a5 aebf
00000760: 9e06 ed0a 3128 9cbf bbb5 9311 1861 86bf
00000770: 2673 23d2 ef9f 6bbf 0000 0000 0000 0000
00000780: 9863 a54b de9e 2cbf 2611 a918 99a1 6ebf
00000790: ce6f 4646 b5ae 75bf 0000 0000 0000 0000
000007a0: 9463 a54b de9e ecbe 9463 a54b de9e 2cbf
000007b0: da1b 2ea7 0092 9cbf 78d6 7173 d570 78bf
000007c0: 0000 0000 0000 0000 0000 0000 0000 0000
000007d0: 0000 0000 0000 0000 42a2 3ed4 de60 97bf
000007e0: 7781 f7c1 5356 8abf 3227 cade 40d1 5cbf
000007f0: 0000 0000 0000 d4bb 0000 0000 0080 eebb
0.10199421958266291 0.0029811931462034318 0.08996671251901664 0.13014414227526128 0.12256100034110179 0.156661313778378 -0.04184472288554926 -0.13495656912903126
-0.16937870583902837 -0.08776128508571243 -0.10192301720502855 -0.06957091491615673 0.09697730625919602 0.10865075256757717 0.29782347158489864 0.07480613948366331
0.05726807722307768 0.033729614170253615 -0.0363736213658436 -0.024496720571985462 -0.01617580072530622 0.03382118593627809 -0.040469226013575055 -0.005278532833732758
0.0763756751639127 0.10219286344608589 0.03362141716507693 -0.015767925406862674 0.05418813532459926 0.0331122855754833 0.04774988386732194 -0.05867661972887224
-0.06956333251713674 -0.07572842270426804 -0.0654361224478407 -0.1637151255276163 -0.03587113256886407 -0.028861480208387965 -0.09722246625877679 -0.0828159391842437
-0.06147365443429595 0.01933707837112398 0.009061762350685593 -0.0005838679246969504 0.011909805611484612 0.11115976223244035 0.020681591813439714 -0.10982334555754358
-0.08866989619021962 -0.08206745125288183 -0.11534603074924217 -0.11710369698930469 -0.06211041353728313 0.07017469419871072 0.0545270424270129 0.03282439546570538
0.021490858274423996 0.010785772810832848 -0.09043482379117265 0.06571755411475634 -0.03637047745828257 -0.04186972119311388 0.003286421170784547 0.012884326066893163
-0.23161847351271692 -0.05100271896130103 -0.08712557880056607 -0.17430925643560044 -0.005960604445462032 0.03989913870334229 0.0961330370551438 0.08970436610396353
0.04254235514607091 0.04055063481801272 0.026257802583639495 -0.018163036410518474 -0.0811769784060243 0.011752323293862018 0.07042281648424277 0.04275337926480625
-3.961484499566126e-06 1.0056824230722612e-07 -9.938095211246655e-09 -7.332764282940125e-09 -1.81750405443363e-13 -1.5335964630473997e-10 -1.3380944741604575e-15 0.04725203394588891
-0.0003039743065875482 -0.00034317475268676016 -4.743384504624082e-20 -0.001523217132449117 -0.005540969253001202 -0.0010410421293408254 -0.00028847499943969896 0.0
0.0 0.0 -0.0001442374997198495 0.0 0.0 0.0 0.0 -0.13656204224796206
-0.005648657862090549 -0.0010295242580602793 0.0 -0.018362796477964984 -0.02701859503912562 -0.01394744389822588 -0.002740512494677141 0.0
-0.0022597924890909176 -0.005960677398608705 -0.0015399722530279815 0.0 -2.7294711551692824e-05 -0.00046401009637877714 -0.01276043970259637 -0.004974934381349843
0.0 0.0 0.0 -0.011305815055073208 -0.010573969834045634 -0.0031498621405563676 -0.00034317475268676005 5.548065804515667e-20
-0.01080839455208051 -0.012498660815450435 -0.0012004997114891378 0.0 0.0 -0.0024261115539961162 -0.0006918968216326441 0.0
0.0 0.0 0.0 -0.07047155150480544 -0.003837200943219978 -8.94088374983374e-05 0.0 -0.0005115102467472368
0.007959648695987578 0.004264552426518953 -3.2183943476377584e-05 -6.776263578034403e-21 -0.0017399357641258969 -0.039022153257177374 0.03879283227400195 0.1087304805520226
-0.002181881962788504 -0.0005239770579156828 -9.321086746220486e-06 0.0031161312310434824 -0.00014507322884008315 -0.003466301140709219 -0.00037421560868104877 0.0
-1.3647355775846412e-05 0.0 -0.0007758872518463072 0.0 0.0 0.0 0.0 -0.12814677966607357
-0.010736427995833405 -0.004342107473840858 0.0 -0.07303159660157982 -0.030800152047310608 -0.01247778795264567 -0.004038649992155785 0.0
-0.0007472105797285348 -0.0054930264035694025 -0.003079944506055963 0.0 0.0 -0.0003957733174995456 -0.024540235205661967 -0.007563049728205852
0.0 0.0 0.0 -0.013900167734236052 -0.007599279969535745 -0.003375575410801348 -0.00034317475268676005 -6.755087754353045e-20
-0.02120515177565978 -0.01101400821837786 -0.0021911520469829254 0.0 0.0 -0.0020965841570852062 -0.0003568221084626065 0.0
0.0 0.0 0.0 -0.03460309917168777 -0.004351069405995976 0.0 0.0 -0.0006791893897865899
0.023908551897798017 0.001271322133792558 -0.0009518030789472906 0.0 -0.0008430382749968508 -0.04387934854558537 0.010330978614038944 0.061642445129561796
-0.00561982124765869 -0.0006954582763983803 -8.388978071598369e-05 -0.0013817063895776227 -0.0017876275478535433 -0.005460235689893852 -0.0007996287434108114 0.0
-2.7294711551692824e-05 0.0 -0.0006316497521264587 0.0 0.0 0.0 -2.0328790734103208e-20 -0.04637166352464617
-0.015169993688747916 -0.006969590457704959 0.0 -0.05985404112876239 -0.027497068683493546 -0.010927379642874926 -0.003372162246803606 0.0
-0.0002183576924135427 -0.003739165321606691 -0.00529356775623664 0.0 -1.3647355775846412e-05 -0.0002183576924135426 -0.02790070553194455 -0.005966981690212252
0.0 0.0 0.0 -0.02283046884955043 -0.01285996852578884 -0.0017588742731810656 -1.6940658945086007e-20 -5.166900978251232e-20
