weights5.npy (npy, 51976 bytes, 1 tensors)

array (column-major) f8 [1, 6487]
0	0xbf6c404f5b31123d	-0.0034486341405986208
1	0xbf8e51b43c7fb549	-0.014804275604513821
2	0xbf8218fd6b768457	-0.008836726991662198
3	0xbf77f343d88a4fb3	-0.005847229979412494
4	0xbf71acf2b23b3aef	-0.004315326721281861
5	0xbf83550662d730dc	-0.009439515963912397
6	0x3fa31e3ff8ad9a63	0.037340163332193275
7	0xbf9c28d0e0d9caf3	-0.027499450420189708
8	0x3f9318c1658e5db4	0.018649122069829452
9	0x3fa372f5c492dc5b	0.03798645042973511
10	0x3fa419beca1a21f1	0.039258920832313644
11	0x3fa66abd0d8604b3	0.04378310003358745
12	0x3fa6433ee71dc382	0.043481794083056094
13	0xbf8021bb3fcae171	-0.007876837620060613
14	0x3f7bd9a9285dc9b0	0.006799374363128427
15	0x3f7dbcda455bef98	0.007260182019077542
16	0x3f91955bc895a90e	0.017171320073807776
17	0xbf876bfd6d041cda	-0.011436443223387039
18	0x3f828fe2bd6f66e0	0.009063502698995973
19	0xbf936cca628f91e8	-0.018969690576243453
20	0xbf507a36b5ac5c9b	-0.0010057005189929916
21	0x3f7a45ca118dbc0e	0.006414212541911558
22	0x3f90e31050a2bb85	0.016491179391489936
23	0xbf7e1527b0d232f6	-0.007344393770051685
24	0xbf8f2ff3185b5e9c	-0.015228175335706688
25	0xbf79879b7f558200	-0.006232840930664896
26	0xbf859b3204971ac8	-0.010549917950709711
27	0x3f65f31aa7ae3d11	0.002679397640754318
28	0xbf94f810f42e3922	-0.020477547553633298
29	0xbf9c63ee6a14328b	-0.027724957680265432
30	0xbf8fffcc54aebb83	-0.0156246150343955
31	0x3f540d98127fead2	0.001223944194861094
32	0x3f8b40f502516b91	0.01330748952221031
33	0x3f793943a2ab5c85	0.006158127022636188
34	0x3f7023a63cf37c84	0.003940247886219276
35	0x3f8f75eb77e39f55	0.015361632915712834
36	0x3fb01c4570218e0e	0.0629313849217896
37	0x3fa61c46b5ee93fd	0.04318448038910814
38	0x3f8d0fac6f57066d	0.014190051219773648
39	0xbf2721fe12335546	-0.0001764891286259262
40	0xbf70c15c893fe372	-0.004090653867017889
41	0xbf7c7747a0bcac6d	-0.00694969157829482
42	0xbf80c5d1f29c643a	-0.008189811912915446
43	0x3f7433a27a053a89	0.004932055162795942
44	0x3f780f96fce7dc56	0.005874242588553255
45	0x3f92fc0b5a8a7230	0.0185395978938791
46	0x3f906745e8da2cd5	0.016018955552266363
47	0x3f8fa9c917a2da4f	0.015460558923547611
48	0xbf68bc78c62f64db	-0.0030195578451467204
49	0x3f82ad83556dcd42	0.009120012325843366
50	0x3f8861a7d09275bd	0.011905013134589798
51	0xbf747883f09d919e	-0.004997744932414254
52	0xbf7ef4f0ac9a37ce	-0.007557811864570453
53	0xbf7a605f389e5900	-0.006439563710861629
54	0xbf95dbbee8b42595	-0.02134607596693668
55	0xbf8c9a05c4a61447	-0.0139656496655879
56	0xbf896d97dd63f418	-0.012416063731956625
57	0xbf8607a677ca2be4	-0.010756779223148834
58	0xbf7d5030263bb6b2	-0.007156551440613933
59	0xbf886513d2980bf4	-0.011911539902035508
60	0xbf814c59c26a8edb	-0.00844640850602423
61	0xbf7a613277b3530e	-0.006440350665077655
62	0x3f7f96096bbbef6e	0.0077114456178114365
63	0x3f977bbc4362b902	0.02293295060433654
64	0xbf9a459b04e13d5e	-0.025656149075357397
65	0xbf9ae9fc0f0659d4	-0.026283205430070414
66	0xbf75580b8695721c	-0.0052109194014886805
67	0xbf6d103d8aaa1b8c	-0.0035477830873022528
68	0xbf85f453aded23aa	-0.010719922776518082
69	0xbf84cf48b014398a	-0.010160987733368616
70	0x3f5bb8ce807f7f4f	0.0016920105572281912
71	0xbf747a2e0657b72c	-0.004999332222252833
72	0xbf87a00356a6ea71	-0.011535669404897338
73	0x3f789006c3bf75f6	0.005996729301811046
74	0xbf95cfff6b402576	-0.02130126087289371
75	0xbf995b55668e2abb	-0.02476247251937978
76	0xbfa08ab9d2487a67	-0.03230839435513105
77	0xbf9ea8c0898f5a9d	-0.02994061317061868
78	0xbf92a14d64cd3a58	-0.018193444516607066
79	0xbfa0efe0fa586c4f	-0.03308013015722421
80	0xbf061261046fc8f4	-4.209860394856378e-05
81	0xbe8651329673dfb6	-1.6627593455559633e-07
82	0xbdf48c13ca6fc718	-2.990007776411324e-10
83	0xbde0742f1863008f	-1.197174687451345e-10
84	0xbc61173df7280bf5	-7.411948341458091e-18
85	0xbd5f99aadbcfac15	-4.4906675137085417e-13
86	0x3c3182b378386bf5	9.492488711811447e-19
87	0xbfb14b997fe08850	-0.06755980846404097
88	0xbf680e55bea3b0d3	-0.002936522932136845
89	0xbf5c4be8f11ebd0a	-0.00172708271245964
90	0xbf4194e0932fbdbf	-0.0005365463788375365
91	0xbf8226b0bfeb148f	-0.008862858635789088
92	0xbf5aceaa722e3ffb	-0.0016361870300194415
93	0xbf6139290fbee9ec	-0.002102451513534156
94	0xbf52b127eae64f7f	-0.001140870077141337
95	0x0000000000000000	0.0
96	0x0000000000000000	0.0
97	0x0000000000000000	0.0
98	0xbf2460a58346562f	-0.00015546818179916616
99	0x0000000000000000	0.0
100	0x0000000000000000	0.0
101	0x0000000000000000	0.0
102	0x0000000000000000	0.0
103	0x3fb0c5afcf29e1e0	0.06551646049218318
104	0xbf65b6e15d4f10b3	-0.002650680699362773
105	0xbf3105c171092b7c	-0.00025974247640608134
106	0x0000000000000000	0.0
107	0xbfa1ae9634f68765	-0.03453511616250075
108	0xbfa607a62026608a	-0.04302710668997729
109	0xbf7e652aeb27ac2e	-0.00742069974010477
110	0xbf6657a8b3ffe474	-0.002727345941818055
111	0x3bcc000000000000	1.1858461261560205e-20
112	0xbf692ccf0f94a539	-0.003073124328370949
113	0xbf5287fbfaa49e8f	-0.0011310539944790231
114	0xbf55fb0a36b2d6c1	-0.0013415908568225473
115	0x0000000000000000	0.0
116	0xbef3f71f401bd97e	-1.9040413468973578e-05
117	0xbf353691341d970c	-0.0003236870289725503
118	0xbf7e361a7edf3ab6	-0.007375815866864135
119	0xbf7c5dc8b3455941	-0.006925376878220314
120	0x0000000000000000	0.0
121	0x0000000000000000	0.0
122	0x0000000000000000	0.0
123	0xbf8e6922df7db762	-0.014848968930632093
124	0xbf7c8e392189f79a	-0.006971572082532429
125	0x3f6b946c91e45ce8	0.003366672564094498
126	0x0000000000000000	0.0
127	0x0000000000000000	0.0
128	0xbf815b303587928e	-0.00847470916137041
129	0x3f84fb660d941e90	0.010245129861245844
130	0x3f7f3fa8ae3fa25e	0.007629069241354173
131	0x0000000000000000	0.0
132	0x3bcc000000000000	1.1858461261560205e-20
133	0xbf4dae2ee4d3d1a2	-0.0009057740186606998
134	0x3f71f81d7f07775d	0.004387011737405047
135	0x0000000000000000	0.0
136	0x0000000000000000	0.0
137	0x0000000000000000	0.0
138	0x0000000000000000	0.0
139	0xbf318b472ee71e30	-0.0002677010333198308
140	0xbf57e6c4e6959d49	-0.001458828245029258
141	0x0000000000000000	0.0
142	0x0000000000000000	0.0
143	0xbf716e9ef0465377	-0.0042558868921290715
144	0xbf897b6c6ea312aa	-0.012442443014500999
145	0xbf8083748fe12c0e	-0.008063231125694539
146	0x3f761a445f6e4e01	0.005396143990668901
147	0xbf509d4749768fa8	-0.0010140606080790513
148	0xbf64be17460d02ec	-0.0025320486605838657
149	0xbf96c01a2d0b6fbe	-0.02221718692713614
150	0xbf9f8a172f7b9742	-0.030800211213225077
151	0xbfa706bbbc2f7e2c	-0.044973246309151754
152	0xbf66fb5c20f1e86b	-0.002805404604768793
153	0xbf57da1b2352ae58	-0.0014558091182078816
154	0xbf4d923746324a6e	-0.0009024400609568114
155	0xbf7c739b2d2b5338	-0.006946188123681911
156	0xbf6b7e72862a03ad	-0.0033561932371530463
157	0xbf728936000cb74f	-0.004525385797746597
158	0xbf74e73ac2498078	-0.005103330161176804
159	0x0000000000000000	0.0
160	0xbee3f71f401bd97e	-9.520206734486789e-06
161	0x0000000000000000	0.0
162	0xbf45a383175e1c3c	-0.0006603612989558648
163	0x0000000000000000	0.0
164	0x0000000000000000	0.0
165	0x0000000000000000	0.0
166	0x0000000000000000	0.0
167	0x3fafbb0f819a7425	0.06197403389999349
168	0xbf6409ea49eac77d	-0.0024461341812064817
169	0xbf347078c8bc2ba1	-0.0003118796237095382
170	0x0000000000000000	0.0
171	0xbfae74732b3b402e	-0.05948219206550252
172	0xbfa34a3eac6b4e33	-0.03767581801153277
173	0xbf8669edbf4a1055	-0.01094423046129848
174	0xbf7007fd8341e7d7	-0.0039138701287075505
175	0x3bcc000000000000	1.1858461261560205e-20
176	0xbf570b7c644ba8e5	-0.0014065470469924398
177	0xbf480a690f5413c1	-0.0007336628902129204
178	0x3f58571c8c087496	0.0014856127528511168
179	0x0000000000000000	0.0
180	0x0000000000000000	0.0
181	0xbf3217f452193d0f	-0.0002760859953001163
182	0xbf80c7b9bc9780c9	-0.008193446224084149
183	0xbf7f03fdde9672fd	-0.007572166135471956
184	0x0000000000000000	0.0
185	0x0000000000000000	0.0
186	0x0000000000000000	0.0
187	0xbf90e7464239cffe	-0.0165072420044936
188	0xbf8431b6d7afcb4d	-0.009860447365985481
189	0xbf3308b370033bfd	-0.0002904356079058144
190	0x0000000000000000	0.0
191	0x0000000000000000	0.0
192	0xbf70ab9777a01b27	-0.004069892567719425
193	0xbf26cfc27499d763	-0.0001740383980181572
194	0x3f91a572977fd170	0.017232695099623496
195	0x0000000000000000	0.0
196	0x3bcc000000000000	1.1858461261560205e-20
197	0x3f5b1e992035cbad	0.0016552443856567664
198	0x3f8d3dc1b85bc867	0.014277947844196072
199	0x0000000000000000	0.0
200	0x0000000000000000	0.0
201	0x0000000000000000	0.0
202	0x0000000000000000	0.0
203	0xbf54f6b4c1033a15	-0.0012795224356981817
204	0xbf5868182cde3d20	-0.0014896617971976236
205	0x0000000000000000	0.0
206	0x0000000000000000	0.0
207	0xbf728cc9f2b61113	-0.004528797969559645
208	0xbf8ced2b470adcca	-0.014124239068549111
209	0xbf8519bfcb5d0cdf	-0.0103030189453705
210	0x3f5cfdfa66c0819f	0.001769537479965867
211	0xbf33cc81456b1453	-0.0003021064380102679
212	0xbf6f201962c4ab29	-0.0037994857613247346
213	0xbf8bdf6e1d830cb1	-0.013609752917892544
214	0xbf9e4079baab4ad3	-0.02954282953107674
215	0x3fa97bca50628062	0.049772569954485105
216	0xbf60a787389d6297	-0.0020330086744418485
217	0xbf69039496145121	-0.003053465087427779
218	0xbf52e1d53349f60a	-0.0011524755510942141
219	0xbf7b529064ace3d8	-0.006670536075767473
220	0xbf7f526f6f999986	-0.007646975800162164
221	0xbf7e20367c84d1e9	-0.007354939305788546
222	0xbf84ac1f646449ff	-0.010093922854626845
223	0x0000000000000000	0.0
224	0xbef3f71f401bd97e	-1.9040413468973578e-05
225	0x0000000000000000	0.0
226	0xbf716a6df6ba30d8	-0.004251889749536462
227	0x0000000000000000	0.0
228	0x0000000000000000	0.0
229	0x0000000000000000	0.0
230	0xbf1e5f1c9507595f	-0.00011585819198187606
231	0xbf7abe28b3c22489	-0.0065290059975576875
232	0xbf4cf8fe58e0c344	-0.0008841745309436729
233	0xbf277722eb5df70e	-0.0001790266157363708
234	0x0000000000000000	0.0
235	0xbfb4771a7b086ad7	-0.07994237426502636
236	0xbf9c085a48d85e93	-0.027375612922780745
237	0xbf84866a2b7057b5	-0.010022000742576734
238	0x3f7023020e21d4db	0.003939636257304725
239	0x0000000000000000	0.0
240	0xbf411cb00cfd41a3	-0.0005222186682463558
241	0xbf603a7eb5dc6c58	-0.001981017571677717
242	0x3f91dc847768ca4d	0.017442769802253278
243	0x0000000000000000	0.0
244	0xbee3f71f401bd97e	-9.520206734486789e-06
245	0xbf23f71f401bd97e	-0.00015232330775178862
246	0xbf84022ae536fe6d	-0.009769759292679947
247	0xbf7d3674bb1f60a5	-0.007132011394752312
248	0x0000000000000000	0.0
249	0x0000000000000000	0.0
250	0x0000000000000000	0.0
251	0xbf89711ab2bef1f2	-0.012422760562793098
252	0xbf84e799c69e2cac	-0.010207368253551806
253	0xbf50844ac0106420	-0.0010081033690367905
254	0xbf166a0a5abe3ef2	-8.550346563951006e-05
255	0x0000000000000000	0.0
