weights1.npy (npy, 51976 bytes, 1 tensors)

array (column-major) f8 [1, 6487]
000000 93 36 41 21 e3 78 b7 bf 8d a8 c3 a4 f0 30 ca bf
       -0.0916883426845863 -0.20461853070384386
000010 30 3b 64 73 cf 0f e3 bf d7 09 87 8e 78 8e d0 3f
       -0.5956799749127182 0.25869573515606475
000020 fc 84 13 06 33 ab e9 3f 76 02 d4 b3 73 00 e3 bf
       0.8021483534504621 -0.593805171229248
000030 3a f8 20 08 29 09 d3 bf d9 b2 7c 80 2f 9d e1 3f
       -0.2974340991385166 0.5504376897348165
000040 84 00 bb 8a d5 e8 f3 bf 21 5a d1 cd f1 f8 a4 bf
       -1.2443442744406932 -0.040961796163788707
000050 c7 12 e6 8e d1 73 a9 3f dd 85 3a 52 e4 fa e3 3f
       0.049711750692073724 0.6243764501597827
000060 0d ba e9 12 6c 65 c6 3f 37 1c 77 d0 94 f1 e5 bf
       0.17497015880094616 -0.685739905508746
000070 51 9b c0 43 18 05 f9 3f 06 87 fe 90 1b 31 de bf
       1.5637438437058402 -0.4717472949943019
000080 e0 82 1a 92 c8 5c c8 bf 03 ec 27 61 7e 30 cb 3f
       -0.19033152708018175 0.21241740936224582
000090 e4 a8 9a f5 6e 77 d2 3f 8b 0a 45 ea a4 a0 e5 bf
       0.28853963837413077 -0.675859887655251
0000a0 df 17 2a 23 4b 94 bd bf 32 5c a8 38 9c e7 cb bf
       -0.11554402931696427 -0.21800568357932232
0000b0 c8 79 ec 7e 3a 41 e1 bf 8d 0b 91 1f 7f f0 cf 3f
       -0.5392124632815518 0.2495268730291084
0000c0 6c f5 b6 e2 91 3a eb 3f fa f7 9f a4 11 9f b1 bf
       0.8508996418019428 -0.06883344906961489
0000d0 8b a0 80 7c 86 db fa 3f 74 1b 62 05 25 8f 4b bf
       1.6785950530411664 -0.000841038777040433
0000e0 bd 6b 65 a0 09 03 b3 3f 5c c9 16 af 5b d0 d9 3f
       0.07426510015413519 0.4033421716550458
0000f0 24 73 a8 7f 2f 09 d6 3f fa 0b 56 7b 83 f1 e7 bf
       0.34431064097025144 -0.7482316407116507
000100 81 b7 d5 e7 ea 3c c4 bf 6e e3 f5 37 48 41 d5 bf
       -0.15810905761776087 -0.3321095034112237
000110 56 b4 67 c2 86 e1 c9 3f ba 95 24 d1 ea 35 ed 3f
       0.20219501964985181 0.9128316960165457
000120 ee b0 3c 5e d9 f1 dc bf b0 ec ee 7a 13 36 f5 bf
       -0.4522612972530301 -1.325702171524238
000130 26 ad 75 72 23 cf cc bf ff 73 b1 af fe f3 b2 3f
       -0.22507136429644808 0.07403556622871575
000140 0c e8 7a 58 77 e9 cb bf c5 d3 98 c2 2c 56 f5 3f
       -0.21806232281034033 1.3335387803501686
000150 1e 4d 7c b1 27 6b ad bf d4 ca f4 7e 73 48 e0 bf
       -0.05745815316745449 -0.5088441352475805
000160 01 58 5d 5b 33 cc fd bf 29 52 78 91 db 19 d2 3f
       -1.8623536652498844 0.2828282280545716
000170 a0 96 d9 07 18 72 ca bf a3 af ce e6 81 47 c7 3f
       -0.20660686858461919 0.18186973352328292
000180 90 da fe c6 87 e8 ac bf 2c d5 88 ec 1c b2 e3 bf
       -0.05646156601090013 -0.6154923076452739
000190 84 51 7d 0f 0b 4e e0 3f 13 a8 fd 80 a9 7c db bf
       0.509526758435229 -0.42948377224695483
0001a0 ff d0 e8 89 75 37 d6 3f 68 b2 41 c9 d3 45 e4 3f
       0.3471349570056787 0.6335238390725637
0001b0 d4 18 17 8c 60 8a ca 3f fc 58 ed 72 6c 21 a9 3f
       0.20734793510764027 0.049083127049629
0001c0 34 32 ac ad 83 d0 c8 3f b5 90 de eb 59 5d d8 3f
       0.19386335353955675 0.3806977084552828
0001d0 1d d7 f6 96 12 34 f5 bf 79 60 7b cf 2e ca d8 3f
       -1.325213041023239 0.38734026204975397
0001e0 18 a7 c5 e3 b8 0a ba 3f 03 3a a6 f5 fa 08 de bf
       0.10172610817758387 -0.46929811467353505
0001f0 33 08 c0 b1 dd c2 e8 3f 34 37 4b 68 3d d9 e4 bf
       0.7737873527223712 -0.6515185391415117
000200 05 b1 6e 27 8d 05 c8 3f 8b 89 fb 66 53 a8 c4 bf
       0.1876694147625885 -0.16138689545102766
000210 71 15 b2 3a 03 e8 f3 3f f3 74 8a d9 93 a7 c9 3f
       1.2441437046812462 0.20042656061278982
000220 7c 93 1d ed 52 2e b0 3f 7d 11 7d 22 8f b1 d5 bf
       0.06320684708550844 -0.33896234863302493
000230 c9 2e 26 2a 29 92 d4 bf c3 23 a1 74 e8 b4 f9 bf
       -0.32142094722869935 -1.606666999419972
000240 e8 07 46 96 ab a1 8d 3f 45 1b 94 d6 e3 dd e8 bf
       0.014468517802701045 -0.7770861807810908
000250 84 fb 89 28 1d 9e e4 bf c2 9a 28 ae ac 1d f7 3f
       -0.6443010131623486 1.4447447588988074
000260 e3 01 e1 71 c0 14 e7 3f ed 47 e2 0b 9e 09 e4 bf
       0.721283171100421 -0.6261739952190034
000270 5f 14 07 1d 7c 5d ec 3f fc 71 1b d4 41 87 db 3f
       0.8864117209383372 0.43013044084162266
000280 43 bc 7b fa 88 08 54 bf e9 b5 54 4e 96 e0 0d 3f
       -0.0012227380447560477 5.698641488503435e-05
000290 76 fe ae 87 4d 02 5c 3e bc 72 9a 9a c7 60 73 3e
       2.608540981461184e-08 7.218884570188449e-08
0002a0 4c e7 e4 9b 1f fd 5e 3d 28 1d 8c e8 f1 99 39 3e
       4.4037681681852274e-13 5.96077821195695e-09
0002b0 d7 bf 1b 92 23 a1 1a 3d 5e 4c 21 5b 65 8b ec 3f
       2.365170194483233e-14 0.8920161037334642
0002c0 df 95 c0 93 e6 2f c8 bf 7b 40 85 05 ad 94 a5 bf
       -0.18896181311099178 -0.04214993183507062
0002d0 2c 72 80 f1 84 2e 6c bf 5a b4 fc 23 5b 0d d2 3f
       -0.0034401508855934817 0.28206518663757196
0002e0 b5 20 a4 71 60 5d c4 3f 22 41 62 ca aa a2 56 bf
       0.159099631775694 -0.0013815563084201361
0002f0 4a 1d 82 03 4f 65 79 bf 00 00 00 00 00 00 00 00
       -0.006200131079942503 0.0
000300 00 00 00 00 00 00 00 00 00 00 00 00 00 00 00 00
       0.0 0.0
000310 36 f5 7e 83 c8 13 51 bf 00 00 00 00 00 00 00 00
       -0.0010423143521472561 0.0
000320 00 00 00 00 00 00 00 00 00 00 00 00 00 00 00 00
       0.0 0.0
000330 00 00 00 00 00 00 00 00 83 4f 67 8e 2c 98 e0 3f
       0.0 0.5185759335822556
000340 d4 fa fe c2 fc da c3 bf 5e 9c fe 59 0b c5 36 bf
       -0.15512046357431208 -0.0003474381173824199
000350 00 00 00 00 00 00 00 00 ef 5e cc cf 39 fb ca 3f
       0.0 0.21079180380251425
000360 f8 1c 39 ca 4a dc d3 bf cf 9f 6a 1c 3c 12 b6 bf
       -0.31032056568479005 -0.08621574109804374
000370 cf 71 e0 ce 7d 3b be bf 00 00 00 00 00 00 00 00
       -0.11809526730252816 0.0
000380 96 9c 74 b4 9c 9f b5 3f 40 2c f5 cb a9 e6 83 bf
       0.08446673780109601 -0.009717299019618264
000390 36 9b 3d 52 9a b7 94 bf 00 00 00 00 00 00 00 00
       -0.02023163916546907 0.0
0003a0 00 00 00 00 00 00 00 00 00 00 00 00 00 00 00 00
       0.0 0.0
0003b0 44 58 c9 aa 7c 66 7e bf e0 0a 31 9c 76 b7 a1 bf
       -0.007421957951541162 -0.03460283905635264
0003c0 00 00 00 00 00 00 00 00 00 00 00 00 00 00 00 00
       0.0 0.0
0003d0 00 00 00 00 00 00 00 00 66 fe 6a b1 94 84 da bf
       0.0 -0.4143420918080437
0003e0 26 b4 08 ad 50 5c b2 bf 13 e2 cd ac 5e 3e a6 bf
       -0.07172111725294936 -0.04344459399630209
0003f0 00 00 00 00 00 00 00 00 ef fa a3 3b 1a 8e a5 bf
       0.0 -0.042099780826893134
000400 22 ad 80 7a ec 76 cd 3f 70 88 27 dd 4c 39 c4 bf
       0.23019176465582186 -0.1579986648421854
000410 34 50 56 7f ba a0 88 3f 00 00 00 00 00 00 00 00
       0.012025315295240181 0.0
000420 5f 2e ab 86 e4 a9 82 bf aa b5 bb f2 4a 9a 82 bf
       -0.009113107070695734 -0.009083352596884382
000430 bf ef b4 74 5f c0 a6 bf 00 00 00 00 00 00 00 00
       -0.04443643855708456 0.0
000440 00 00 00 00 00 00 00 00 00 00 00 00 00 00 00 00
       0.0 0.0
000450 00 00 00 00 00 00 00 00 c2 d3 45 9e 65 94 ca bf
       0.0 -0.20765371540224292
000460 33 e8 82 90 70 bb a2 3f 00 00 00 00 00 00 f0 bb
       0.03658630146078714 -5.421010862427522e-20
000470 00 00 00 00 00 00 00 00 34 dd 5d ee 03 96 c5 bf
       0.0 -0.1686406053447428
000480 28 03 61 fa cd c6 d4 bf ac 8b bb 5c ee 16 bf 3f
       -0.32463406992978827 0.12144365085582248
000490 3b 07 0a 35 91 03 14 3f 00 00 00 00 00 00 44 bc
       7.634710096662566e-05 -2.168404344971009e-18
0004a0 16 c5 18 74 13 a2 b4 bf 30 fc 49 c7 5c 86 aa bf
       -0.08059808334725846 -0.05180635388114074
0004b0 5c 01 72 45 27 80 df bf 40 82 97 26 8e 6e e1 bf
       -0.4921968630005915 -0.544745517134352
0004c0 4a a4 be 9c 23 cc cc bf 73 d0 da bb 6e 67 b9 bf
       -0.22497983125257043 -0.09923450552270356
0004d0 4d 47 55 f0 91 d8 a8 bf 64 70 88 b4 c5 ab c2 3f
       -0.048527298533953635 0.14586707415662936
0004e0 23 7a 65 f7 9c b4 cf 3f 6f f6 4f 45 3b 8f 64 bf
       0.24769937591459365 -0.0025097043640006016
0004f0 50 98 f2 52 c4 db a7 bf 00 00 00 00 00 00 00 00
       -0.04659856331390755 0.0
000500 00 00 00 00 00 00 00 00 00 00 00 00 00 00 00 00
       0.0 0.0
000510 85 4e 39 3e 5e 0b 53 bf 00 00 00 00 00 00 00 00
       -0.0011623783438111945 0.0
000520 00 00 00 00 00 00 00 00 00 00 00 00 00 00 00 00
       0.0 0.0
000530 00 00 00 00 00 00 00 00 2e f7 5b 9e 04 2b e3 bf
       0.0 -0.5990012257532038
000540 09 6c 0a 10 fe 8a cf bf 0f a0 81 73 ad 86 4d bf
       -0.24642921241033403 -0.000901064579932333
000550 00 00 00 00 00 00 00 00 4d 48 a7 34 d1 df ec 3f
       0.0 0.902321436728252
000560 12 bf 08 8b 6a 80 c8 3f a6 42 a8 01 5c 51 b4 bf
       0.19141895092752087 -0.07936644592724437
000570 57 9c dd 0d f5 c9 bf bf 00 00 00 00 00 00 00 00
       -0.1241753729678846 0.0
000580 b9 07 44 02 86 76 a7 3f e4 a5 4e ae f4 54 92 bf
       0.04582613732965463 -0.017902205599659285
000590 32 1b cc 41 e1 c4 a4 bf 00 00 00 00 00 00 00 00
       -0.04056457451047492 0.0
0005a0 00 00 00 00 00 00 00 00 00 00 00 00 00 00 00 00
       0.0 0.0
0005b0 6c 64 86 f9 13 6f a5 bf 06 7d bd aa 24 d5 8b bf
       -0.04186308308562378 -0.013590132198884063
0005c0 00 00 00 00 00 00 00 00 00 00 00 00 00 00 00 00
       0.0 0.0
0005d0 00 00 00 00 00 00 00 00 09 c6 4d 73 a5 2c c4 bf
       0.0 -0.15761249666279323
0005e0 5b bd 89 70 a2 53 d8 3f 66 5b b1 9d 60 c7 97 bf
       0.3801046465877868 -0.023221501946263066
0005f0 0b a0 81 73 ad 86 4d bf a6 cc 8d a9 2b 1d 70 bf
       -0.0009010645799323325 -0.003934069209992652
000600 f8 0e 03 93 7e 21 c8 3f 73 7f 68 d2 e4 40 cc bf
       0.18852216890638096 -0.2207304026969684
000610 ba 25 80 e5 1b e5 91 bf 00 00 00 00 00 00 00 00
       -0.017475543863872046 0.0
000620 00 00 00 00 00 00 00 00 e0 bf 23 a9 42 5a 87 bf
       0.0 -0.011402626787884118
000630 26 6a 9d d0 3a 5b 94 bf 00 00 00 00 00 00 00 00
       -0.019879263861506534 0.0
000640 00 00 00 00 00 00 00 00 00 00 00 00 00 00 00 00
       0.0 0.0
000650 00 00 00 00 00 00 00 00 5c 55 e4 4d f3 ac c1 bf
       0.0 -0.13809052756611606
000660 d0 ab a5 08 81 50 84 3f 00 00 00 00 00 00 00 00
       0.009919174267187275 0.0
000670 00 00 00 00 00 00 00 00 4d 7b 2b 8f 49 b4 b6 bf
       0.0 -0.08868846650464697
000680 fc 0f d1 19 6c 32 a0 3f 1c c0 28 8a ce 8e bc 3f
       0.03163469138283401 0.11155405877138985
000690 a4 92 03 db 85 83 74 bf 00 00 00 00 00 00 38 bc
       -0.00500824248613144 -1.3010426069826053e-18
0006a0 d2 55 f2 a0 b0 99 9a bf b2 6e 72 c2 8a 39 c0 3f
       -0.02597690565433714 0.12675604338152408
0006b0 19 ff b5 b7 c0 c3 b7 bf 0e a5 bb 6b 0e 0e ea bf
       -0.092830700732517 -0.814215860763541
0006c0 32 70 92 ce 84 a8 d7 bf 39 ad 7f 64 1d a6 b8 bf
       -0.3696605698876311 -0.09628471091825909
0006d0 a0 25 ca b0 00 b2 b1 bf 0a 6e da 81 fd 3c e8 3f
       -0.06912235561516988 0.7574451004215359
0006e0 33 e0 c6 a4 b1 57 c5 3f 77 d9 2c dc 95 73 83 bf
       0.16673870607132954 -0.009497805387223874
0006f0 2f 52 20 17 c5 ec b2 bf 00 00 00 00 00 00 00 00
       -0.07392532171827136 0.0
000700 00 00 00 00 00 00 00 00 00 00 00 00 00 00 00 00
       0.0 0.0
000710 2d 60 28 f1 d2 d2 84 bf 00 00 00 00 00 00 00 00
       -0.010167739853429303 0.0
000720 00 00 00 00 00 00 00 00 00 00 00 00 00 00 00 00
       0.0 0.0
000730 7e 5d 41 97 ce e7 5b bf c2 78 a4 aa e9 95 e0 bf
       -0.001703216313236527 -0.5182998974667259
000740 85 35 04 50 a1 f7 ce bf 11 a0 81 73 ad 86 5d bf
       -0.2419320717530519 -0.0018021291598646664
000750 00 00 00 00 00 00 00 00 b0 58 d8 d1 46 b7 ea 3f
       0.0 0.8348726366555379
000760 58 fc 4e 82 7b 0b d3 bf a7 0e 6a 0c 94 48 ae bf
       -0.29757583356326256 -0.05914747859517649
000770 c7 8c ba 6e 32 72 ba bf 00 00 00 00 00 00 00 00
       -0.10330500796640073 0.0
000780 f6 ce 9e e5 39 40 87 3f da 18 68 96 84 64 a1 3f
       0.011352970428425629 0.03397001586931632
000790 c9 d5 ad 5b 5b cc af bf 00 00 00 00 00 00 00 00
       -0.06210599416855762 0.0
0007a0 00 00 00 00 00 00 00 00 00 00 00 00 00 00 00 00
       0.0 0.0
0007b0 8b b2 86 f8 2e a4 b5 bf 7b 6f 2b fc 1d 58 a2 bf
       -0.0845364910844159 -0.03582853034251251
0007c0 00 00 00 00 00 00 00 00 00 00 00 00 00 00 00 00
       0.0 0.0
0007d0 00 00 00 00 00 00 00 00 cd 1f 14 7a 25 b7 8c bf
       0.0 -0.014021199024241949
0007e0 8e 61 f8 e1 4b b8 e2 3f 82 0a c8 10 42 65 83 3f
       0.584997121189234 0.00947047818863678
0007f0 0b a0 81 73 ad 86 4d bf a7 cc 8d a9 2b 1d 70 bf
       -0.0009010645799323325 -0.003934069209992653
