weights4.npy (npy, 51976 bytes, 1 tensors)

array (column-major) f8 [1, 6487]
00000000: 528c 9a9a a572 c13f 8315 058d 6e86 debf
00000010: 7b7e 7781 d4b0 d2bf 90bf bfb7 b1a5 cf3f
00000020: fbc2 d252 344e d23f d32b 9a3c 32e8 d1bf
00000030: ff72 b931 120b bebf 7ec3 2290 ae1f d4bf
00000040: b225 3b62 44f6 c73f 9ea9 d2ba 45ed bcbf
00000050: ac63 2664 1897 a03f 14c1 c4db 783c c03f
00000060: 98a7 2d4a 7b34 d23f cc82 3426 dba6 c73f
00000070: 58c0 a89e cb64 c53f 24cf 2340 9a57 c13f
00000080: d313 a7d1 40af 9d3f 6e47 2ff7 c6ab c63f
00000090: b2d6 5f62 225c c03f 97c0 cc7a dd54 e33f
000000a0: 0788 f113 fae9 bfbf 59a5 e69a 6e51 cdbf
000000b0: 96b4 1ff6 9cbf c03f 6409 d8df 3fff 9b3f
000000c0: bcd6 4d3c 3fe8 c63f 8a7e 984a 1415 c6bf
000000d0: 6da2 11f3 4f59 c3bf c1f8 248f 9f69 98bf
000000e0: 6dd0 e65c 1542 c63f 5f53 c33e 31be c03f
000000f0: 9348 f38b aaa1 b23f 39ba 3b72 8474 b93f
00000100: 15c2 a09f c127 ba3f d343 60b9 f7e4 d03f
00000110: 9088 de61 2a6d d93f 622a cc39 d67e c63f
00000120: 0520 c3a8 43af d13f 58b2 4c34 1c19 a63f
00000130: e19b fac2 4526 e4bf f48b d791 9de0 c5bf
00000140: 2977 02f3 f19a c93f 9594 be4e e4a9 a83f
00000150: c989 12f6 942a d0bf 6e1d fd82 26bf dcbf
00000160: 1881 b566 03bf d13f d324 6b90 e4bf 93bf
00000170: 1adc 199c bb01 dd3f 5612 1a62 f21e e23f
00000180: 6e9e 12cd a6d2 e5bf 1df5 e2ca 146a c7bf
00000190: 6ced 6b94 d90a bfbf b7e0 35a0 351c cf3f
000001a0: 698e 8f50 2c96 cf3f 2ffb eca0 dd0a c6bf
000001b0: 1161 ec25 3994 b2bf 45c4 8ffb d28e b93f
000001c0: 1fb9 c624 3c99 e2bf 0572 1a24 283d d73f
000001d0: 3011 b8c8 e328 e03f 89aa 4344 81f0 7b3f
000001e0: 7cda a35a 2fc4 dd3f 080c d10e 17e5 d4bf
000001f0: f08a ff3e 7fa8 e0bf d64a 6346 8fb1 e5bf
00000200: 568c 0449 349d d2bf 1b50 79b2 eb64 debf
00000210: bdc7 f4b3 0afb d93f 2e7e 3669 af6b 9b3f
00000220: ff58 1917 8850 e2bf 202c 5296 b197 e1bf
00000230: a650 99ef 3874 65bf a9da 228a 1711 e93f
00000240: 36e0 c074 6e3e cd3f fe60 d66a 2ab7 aabf
00000250: 2057 b4ff 48d2 c73f 6a8b c44a dfa9 df3f
00000260: 0768 cde5 7be8 d03f 4710 f829 84f5 ef3f
00000270: 85cc e9dd 9db9 e0bf 096e 96bd aa09 f1bf
00000280: 00d9 6d01 b897 46bf b764 616e 5f8c f2be
00000290: 9d05 aeea 01a9 73be ff05 19fb d8ce 6ebe
000002a0: ad04 d329 2b80 3abd d20b 5e01 cbe4 13be
000002b0: bc5d 43ed 7773 f53c 6700 d1de dac6 703f
000002c0: b3df a77b b19c c23f 02df df96 6eb3 af3f
000002d0: ae04 0e04 23b5 753f 3808 c3f9 6ce4 cbbf
000002e0: 08fa 9afc cbf6 923f 644c 12ad 32f5 a73f
000002f0: d149 f827 3718 ac3f 0000 0000 0000 0000
00000300: 0000 0000 0000 0000 0000 0000 0000 0000
00000310: f6c8 82c1 9f5c ad3f 0000 0000 0000 0000
00000320: 0000 0000 0000 0000 0000 0000 0000 0000
00000330: 0000 0000 0000 0000 e0f5 38e3 1908 dbbf
00000340: dada 05b1 c71a b03f 0000 0000 0080 1bbc
00000350: 0000 0000 0000 0000 e5a1 c970 ecb4 d1bf
00000360: 5ca5 a15e 0a74 c1bf ef01 b614 b73f 5fbf
00000370: e056 ee28 b8e8 ac3f 0000 0000 0000 0000
00000380: 83db 55ad 50c5 8bbf eaaa a9a8 015c 70bf
00000390: 3834 05fa 9436 7a3f 0000 0000 0000 0000
000003a0: 0000 0000 0000 0000 0000 0000 0000 203c
000003b0: be8f 76df ef88 84bf 03c4 2fab d1e0 21bf
000003c0: 0000 0000 0000 0000 0000 0000 0000 0000
000003d0: 0000 0000 0000 0000 7c60 f85d 6c3d 93bf
000003e0: 5587 390b 1ed6 b63f 4918 1ea4 7723 8a3f
000003f0: 40cd 42fc 09b7 57bf 0000 0000 0000 0000
00000400: 4f77 04e5 d81c 8abf 03d8 356e 7cba 823f
00000410: 35ab d702 a818 c43f 0000 0000 0000 0000
00000420: 0000 0000 0000 0000 0000 0000 0000 223c
00000430: e961 5c91 826f 903f 0000 0000 0000 0000
00000440: 0000 0000 0000 0000 0000 0000 0000 0000
00000450: 0000 0000 0000 0000 fafe 248c 40d5 a0bf
00000460: 1901 c1f4 1ec5 3ebf 7294 c873 24da 4b3f
00000470: 0000 0000 0000 0000 87ef d725 e7bf 88bf
00000480: c3c5 3538 e6d6 7dbf 9663 fd5b b44c 963f
00000490: daec 1b9e 4149 75bf d4dc 39b9 fd28 3fbf
000004a0: 4abf 32d4 00fe 7dbf 7419 4a94 c9c1 a0bf
000004b0: 11d5 88e4 ac8e b8bf 2cf5 e59d 3935 cfbf
000004c0: 2cbe b2fd 0a87 b23f 8ced 9ed4 7f6f 8a3f
000004d0: 0000 0000 0000 f0bb f6cc c8ff b38e c6bf
000004e0: 3c8f c1b8 c437 9d3f 582e e479 017d af3f
000004f0: e181 6952 282e 9d3f 0000 0000 0000 0000
00000500: 0000 0000 0000 0000 0000 0000 0000 0000
00000510: c48f e717 fea9 b83f 0000 0000 0000 0000
00000520: 0000 0000 0000 0000 0000 0000 0000 0000
00000530: 0000 0000 0000 0000 2e72 8a1a b849 c4bf
00000540: 66dd f11f 2a20 a73f 0000 0000 0040 343c
00000550: 0000 0000 0000 0000 9834 1922 f2c7 cabf
00000560: 37fa df6b f708 993f d242 860d f5bf 72bf
00000570: ae01 dc14 7b88 b03f 0000 0000 0000 0000
00000580: a93f 863a ea9f 89bf 0ca5 f5d0 59ff 58bf
00000590: 2496 6f89 efa0 743f 0000 0000 0000 0000
000005a0: 0000 0000 0000 0000 0000 0000 0000 28bc
000005b0: 2398 33ec 2cd1 953f 83e6 61a7 1c7b 21bf
000005c0: 0000 0000 0000 0000 0000 0000 0000 0000
000005d0: 0000 0000 0000 0000 fb90 b4fa 9039 9cbf
000005e0: 699e 0b73 a316 a53f 723e f23a 6fee 853f
000005f0: e40c 65d4 8891 3bbf 0000 0000 0000 0000
00000600: c4bb 3fd3 17b2 9ebf eb60 b1ea ca40 723f
00000610: e31e 0a15 1475 be3f 0000 0000 0000 0000
00000620: 0000 0000 0000 0000 b357 0faf 47bc 41bf
00000630: 939d 908b e54b a13f 0000 0000 0000 0000
00000640: 0000 0000 0000 0000 0000 0000 0000 0000
00000650: 0000 0000 0000 0000 fc56 0a8f 50d3 9dbf
00000660: 7487 83c1 56d2 6cbf 0000 0000 0000 0000
00000670: 0000 0000 0000 0000 c4a5 801f e1bf 8ebf
00000680: e204 f057 b2ec 87bf 2f01 becf 97f8 7a3f
00000690: d590 a730 4421 74bf c8dc 39b9 fd28 3fbf
000006a0: 68ec f2bd b8aa 8abf a75a d173 4d75 acbf
000006b0: db48 4adc 06ac c4bf e541 cd81 ee6c d1bf
000006c0: 71b4 4b9f d1df b8bf c2c1 0630 8905 a1bf
000006d0: 5c06 6805 84f1 6c3f e84a ef9c 0dcb b6bf
000006e0: 0cfe 2ef9 5f49 88bf c0b3 8503 8510 aa3f
000006f0: 16a8 b1a3 8b7b 853f 0000 0000 0000 0000
00000700: 0000 0000 0000 0000 0000 0000 0000 e0bb
00000710: 453b 7c33 5d64 b53f 0000 0000 0000 0000
00000720: 0000 0000 0000 0000 0000 0000 0000 0000
00000730: a404 0e04 23b5 653f ed67 48e2 4eea aabf
00000740: 5d7a 847b d059 a13f 0000 0000 0000 013c
00000750: 0000 0000 0000 0000 b7da 2dd0 046d b0bf
00000760: b5c1 fd7f fa3d a03f cefd 3825 49c1 813f
00000770: ed10 0860 de8f a43f 0000 0000 0000 0000
00000780: 6914 d0dd fa78 6ebf a3b7 2586 8731 763f
00000790: 59bc 5e27 3ef4 6dbf 0000 0000 0000 0000
000007a0: 0000 0000 0000 0000 0000 0000 0000 0000
000007b0: 5a62 8576 86dd a73f b0f4 679d 2811 39bf
000007c0: 0000 0000 0000 0000 0000 0000 0000 0000
000007d0: 0000 0000 0000 0000 ed48 738d 7a2c a1bf
000007e0: 41b0 d07e d471 7e3f a48a d81a 4b5e 723f
000007f0: 000d 65d4 8891 3bbf 0000 0000 0000 0000
0.13631124543198553 -0.4769550683161798 -0.29204285281409853 0.24724408599967918 0.2860232170888108 -0.27979713361918107 -0.11735643114066006 -0.3144337089134338
0.18720297619283383 -0.11299548922639821 0.03240276548894569 0.12684546213996184 0.2844532226941907 0.18477954259380736 0.1671385311797191 0.13548591739492466
0.028988850399190923 0.17711722440304406 0.12781171611248038 0.6041095159944402 -0.12466395365621007 -0.22904760898135626 0.1308475686813934 0.027340887105319026
0.1789626163915069 -0.17251828806273678 -0.15116309517476925 -0.023840420829622348 0.17389170681201752 0.13080421032523312 0.07277933041339883 0.09943416394137551
0.10216913363616016 0.2639750776589242 0.39728793675943397 0.17574575254578223 0.27632228356060323 0.04316032541678244 -0.6296719368154947 -0.17091722127142328
0.20004104963020922 0.04817117177234668 -0.25259899168500205 -0.4491668967425174 0.2772835257546986 -0.019286700548751434 0.45323076481094093 0.5662776866962058
-0.6819643025709874 -0.1829248419434543 -0.12125930665563595 0.2430483848836553 0.2467704194415206 -0.17220659597111296 -0.07257420707572161 0.09983557359352442
-0.5812054365431186 0.3631077148982345 0.5049914284032067 0.006821160266762613 0.4650991807133449 -0.3264825482075939 -0.5205684881624091 -0.6779247641337303
-0.29084498530045744 -0.47490971020784095 0.40594737600178715 0.026777973934825443 -0.5723305178787824 -0.549767297359157 -0.0026188957242912645 0.7833364198657665
0.228467757233149 -0.05217869333427137 0.18610489354676307 0.4947431783822852 0.26418969575536305 0.998720247240734 -0.5226582845920268 -1.0648600965276975
-0.0006894730057485365 -1.768906704344562e-05 -7.323989829716674e-08 -5.738436871213756e-08 -9.414925237952205e-14 -1.157967060320147e-09 4.763089631128848e-15 0.004095892870339047
0.14540689981344954 0.06191583244065947 0.005299698620434485 -0.21790849872019336 0.01851958016663427 0.04679258692444746 0.05487224924958734 0.0
0.0 0.0 0.05734729039376589 0.0 0.0 0.0 0.0 -0.4223694533319229
0.06290863105628422 -3.7269449679189215e-19 0.0 -0.2766676999513307 -0.13635377522158876 -0.001907280721610612 0.0564630079235664 0.0
-0.01355994252183535 -0.00399399421676592 0.006399709644324729 0.0 0.0 4.336808689942018e-19 -0.010026811606458238 -0.00013639983589500146
0.0 0.0 0.0 -0.018788998828398892 0.08920467161217734 0.012762961097689056 -0.001447448493348727 0.0
-0.012750334252412591 0.009144756425239825 0.15700245035926633 0.0 0.0 4.87890977618477e-19 0.016050377008555747 0.0
0.0 0.0 0.0 -0.03287698469875795 -0.0004695129944174578 0.0008499792089124005 0.0 -0.012084775774375845
-0.00728502206344345 0.021776979555713526 -0.005196815794757026 -0.00047546572134344917 -0.0073223144892578616 -0.032728480674495325 -0.09592705325561136 -0.24381180009724213
0.07237309163860378 0.012907980610058066 -5.421010862427522e-20 -0.17622995366546207 0.028533052231423314 0.0615005933087473 0.02849638941768429 0.0
0.0 0.0 0.09634388049704429 0.0 0.0 0.0 0.0 -0.15849973007142765
0.045167271041402654 1.0977546996415732e-18 0.0 -0.2092268625732785 0.024448266944086163 -0.00457759593736347 0.06458253154051505 0.0
-0.012512044821761341 -0.0015257241355704524 0.005036292734961676 0.0 0.0 -6.505213034913027e-19 0.021305753628347312 -0.00013336872843066139
0.0 0.0 0.0 -0.027563348104323798 0.04118834285128232 0.010708683954617746 -0.0004206618363193483 0.0
-0.029976246136296472 0.004456322330121258 0.1189739753118562 0.0 0.0 -0.0005412435549441069 0.03378217056916379 0.0
0.0 0.0 0.0 -0.029126414041988888 -0.003518266148703592 0.0 0.0 -0.01501441838634577
-0.011681931790010262 0.006584733022350782 -0.004914537780198643 -0.0004754657213434485 -0.013020938202649116 -0.05558244742194534 -0.1614998412738434 -0.27227366138416037
-0.09716520442062106 -0.03324536048183148 0.0035331324136230035 -0.08903584557928534 -0.011858701507548218 0.05090728443142423 0.01048955052666049 0.0
0.0 -2.710505431213761e-20 0.08356268412556485 0.0 0.0 0.0 0.0026498493102172383 -0.05256887924424789
0.033888354375666487 1.1519648082658485e-19 0.0 -0.06416349489686977 0.03172285854714422 0.00866944451183729 0.04016013071307776 0.0
-0.003719797109172297 0.005418328657794821 -0.0036565030995557132 0.0 0.0 0.0 0.04661197850027028 -0.0003824924619094212
0.0 0.0 0.0 -0.033542470709692164 0.007432775554701066 0.004484456423173331 -0.00042066183631934984 0.0
