weights7.npy (npy, 51976 bytes, 1 tensors)

array (column-major) f8 [1, 6487]
-0.3013917401583442 0.1326738947658327 -0.06966241148002118 -0.23594662292672408 0.023431303932448633 -0.027287709754393638 -0.17724820147678788 0.23808304113100692
0.07853103465733198 -0.03369417574585333 0.05968576811848633 0.004862622853069921 -0.22606135669004013 0.4059620973661255 0.22267244841950184 0.14833330508547138
-0.5639248333927448 -0.3508630482998771 0.17307123405898678 -0.3492030935463052 -0.15963012714400449 0.2227030944908282 -0.052534346688850805 -0.10273260880209668
0.21663390450957226 -0.06935264007995169 0.1126950169520569 -0.041149346904812985 0.26365879833443034 0.0010486567809793825 -0.07306724870271959 -0.23677802536361647
0.02915349837494591 0.3591020640591353 0.23112514301498405 -0.03464070827426226 0.16430284025248942 0.11279802554263536 -0.20139893204877524 -0.3673071755982004
-0.3267339161342513 0.2674203138553747 0.25535505414367593 0.1911740219393811 0.11295763767690309 0.009158871528960314 0.051707458822557166 -0.2759297536625661
0.06726386868177346 0.5749870645726014 0.2951516987168134 -0.13122500881334936 -0.1657937178472812 -0.07170416603252584 -0.15287290006617485 0.1468317245649606
-0.3085278535618855 0.17869047163167695 0.06494803939653325 -0.10423758356635841 0.2691244543932436 0.11040181200996448 -0.15399260482134192 0.07962602170853644
0.10537552865449301 -0.0099283647714727 0.4617511794440525 0.2007441843829444 0.011337022866786995 0.06530294321913889 -0.0861545492244382 0.04724951923670989
0.07406344081321597 0.32195355152802746 -0.12283794108507745 -0.24740682542000864 0.00866891639294174 -0.04812541299305526 0.3056399897960495 0.1077591961000743
-0.00026185330696467226 -1.6471151125113356e-06 6.879811407718599e-08 7.983879211272912e-08 1.2484750567399576e-12 1.2447949153365044e-09 3.241793772890168e-14 0.2095880471766136
-0.04425387834954736 -1.6974540262976179e-18 0.0 -0.05217303091752132 -0.03300921822061446 -0.012488601546607806 -0.002543193345244243 0.0
0.0 0.0 -0.004170736317370371 0.0 0.0 0.0 0.0 -0.5856020296860421
-0.015480436505774133 0.0034501773448189195 0.0 -0.14237216900981284 0.4060177167737195 0.014570534991401249 -0.002974316298967773 0.0
-0.008750932520171147 -0.00290162536498438 -0.0003903333870693236 0.0 0.0 0.0 -0.01137848331345983 -0.009797879572214447
0.0 0.0 0.0 -0.020774034115365565 0.175469639296508 -0.002174348665999356 0.0 0.0
-0.0830292714867893 -0.04140355009954235 -0.006066691194799661 0.0 0.0 -0.006456678054230853 5.827586677109586e-19 0.0
0.0 0.0 0.0 -0.030658415150384664 -0.0009212199248229073 0.0 0.0 -0.010096706404223476
-0.046280204861533454 0.0015976660876292315 -0.0010871743329996745 -0.0007637256262717359 -0.008237123288543993 -0.062194814738205526 -0.06111259819750712 -0.04725366739779652
0.002486461693038558 3.3881317890172014e-19 1.0842021724855044e-19 -0.07063308730119752 -0.012136853965102194 -0.013936448315790974 -0.0013149112115829014 0.0
0.0 0.0 -0.0067139296626146094 0.0 0.0 0.0 0.0 -0.016187206307697412
0.0012107190192968977 0.020701064068913463 0.0 -0.46679832028793283 0.47285796184086964 0.009474134991821762 -0.005734837594480905 0.0
-0.02244496908181628 -0.005152855940685121 -0.0009889032399976547 0.0 0.0 0.0 -0.013021160405357708 -0.016581026968362916
-2.0328790734103208e-20 0.0 0.0 -0.02962710108535441 0.019771452623235545 -0.004601968152535979 0.0 0.0
-0.058551853592848514 -0.031930122688339495 -0.006948696933069986 0.0 0.0 -2.0328790734103208e-19 -0.005127433416178254 0.0
0.0 0.0 0.0 -0.038570684979133345 -0.002097015058403061 0.0 0.0 -0.003490517209923307
-0.036227829263969696 0.0039839045540163735 -0.0026808903070739466 1.3552527156068805e-20 -0.010818756589160561 -0.05052032416121086 -0.049243966499515054 -0.4956149271710227
0.04549579340131154 -0.0015027379280636438 0.0 -0.22008809919833938 -0.041234723268557275 -0.016887033013037935 -0.0047420042081567 0.0
0.0 0.0 -0.008794827694228314 0.0 0.0 0.0 0.0 0.12431662209894359
0.046458587261632045 0.027601418758551363 0.0 0.12432123851886125 0.3635130311207683 -0.018212966810595154 -0.004893612061513178 0.0
-0.016938301954841316 -0.005485505322975825 -0.004983643046051871 0.0 0.0 0.0 -0.014511390616910355 -0.014319977836313441
-2.0328790734103208e-20 0.0 0.0 -0.026127357741412664 -0.13846731717899272 -0.003993145642757575 0.0 0.0
00000000: 81ef d094 004a d3bf 64ae 864b 75fb c03f
00000010: 1933 1153 65d5 b1bf cc34 89ba 7f33 cebf
00000020: 20b9 5e30 60fe 973f 5c54 e933 4ff1 9bbf
00000030: 440e 4fae 11b0 c6bf 2ae8 b14d 8179 ce3f
00000040: 3d04 9321 9c1a b43f a2c9 c9ed 5c40 a1bf
00000050: 1c09 360c 228f ae3f f408 0762 d4ea 733f
00000060: 2cc2 ef1a 94ef ccbf cf98 e672 48fb d93f
00000070: 044c d7e1 8780 cc3f d8f5 1ff3 95fc c23f
00000080: ed5e 9a17 ac0b e2bf 6ba9 7449 8a74 d6bf
00000090: e6b2 14bd 3227 c63f d260 9cee 5759 d6bf
000000a0: dc18 c58f c26e c4bf 722e c7f5 8881 cc3f
000000b0: 9e03 e429 c8e5 aabf 19ab 092b af4c babf
000000c0: 2a65 89e7 a8ba cb3f e9de 0839 18c1 b1bf
000000d0: 3333 3ba4 94d9 bc3f e175 6af6 8611 a5bf
000000e0: d589 0927 c9df d03f 2ae9 0ea5 622e 513f
000000f0: b53d 9603 89b4 b2bf 8891 ac09 be4e cebf
00000100: 3168 5628 6ada 9d3f 67d8 4339 87fb d63f
00000110: d62e 4439 8295 cd3f 32e5 4b4a 6dbc a1bf
00000120: 0c1e c31e e007 c53f 454d c2d6 54e0 bc3f
00000130: 00a6 4cb1 70c7 c9bf 13f2 b1f4 f581 d7bf
00000140: 7499 125f 35e9 d4bf 7adf 9217 6a1d d13f
00000150: df95 9ab9 bc57 d03f de86 09ee 6378 c83f
00000160: 04dd a7af caea bc3f f52f 7bed e2c1 823f
00000170: f74c 3469 6679 aa3f f656 fe44 d5a8 d1bf
00000180: cfce 3074 3438 b13f aecb be45 4b66 e23f
00000190: 673e 56f3 c3e3 d23f 92a4 a228 fbcb c0bf
000001a0: 46a6 0482 ba38 c5bf 39be 1848 345b b2bf
000001b0: 814c 1dd5 5691 c3bf dfc9 82c7 61cb c23f
000001c0: 1a04 3d9c ebbe d3bf 34e7 e151 54df c63f
000001d0: f7bd 2549 6fa0 b03f cb7b 6e74 50af babf
000001e0: 900f 8bc6 5539 d13f f97e 000c 4b43 bc3f
000001f0: 3c4a c498 07b6 c3bf 7c14 26f7 5e62 b43f
00000200: 7ca8 5e01 e4f9 ba3f 6849 f88f 5255 84bf
00000210: 2781 a6d1 548d dd3f 74ba 6445 fcb1 c93f
00000220: 5a28 9373 dd37 873f 6970 7595 b1b7 b03f
00000230: cf11 527b 390e b6bf 382d bfc7 1631 a83f
00000240: 043b 1f58 d2f5 b23f 2136 a911 e39a d43f
00000250: 1c1b abab 4e72 bfbf 2239 fedf 06ab cfbf
00000260: 340f 3243 02c1 813f ddc5 d2e5 e4a3 a8bf
00000270: 0b86 2108 9b8f d33f 6dd3 174f 1b96 bb3f
00000280: 487d c763 2b29 31bf ec13 ef37 4ea2 bbbe
00000290: 97fb eb38 c577 723e d699 68e2 7a6e 753e
000002a0: 625c aabd a1f6 753d aade ad7a aa62 153e
000002b0: c741 26cd ea3f 223d 98c6 20f8 c7d3 ca3f
000002c0: 1806 77c0 71a8 a6bf 0000 0000 0050 3fbc
000002d0: 0000 0000 0000 0000 4c43 0c6b 6cb6 aabf
000002e0: d5b8 7291 95e6 a0bf c240 b9b9 9f93 89bf
000002f0: 32ea d887 76d5 64bf 0000 0000 0000 0000
00000300: 0000 0000 0000 0000 0000 0000 0000 0000
00000310: cc61 5581 5515 71bf 0000 0000 0000 0000
00000320: 0000 0000 0000 0000 0000 0000 0000 0000
00000330: 0000 0000 0000 0000 f320 bf77 40bd e2bf
00000340: 812c 2904 35b4 8fbf 3a91 90db 8b43 6c3f
00000350: 0000 0000 0000 0000 53fd e050 4039 c2bf
00000360: 1bf1 c8bb 31fc d93f b8b3 2f1a 28d7 8d3f
00000370: 83c2 6ce7 975d 68bf 0000 0000 0000 0000
00000380: 917d de47 02ec 81bf de00 8841 26c5 67bf
00000390: b6ba ca21 b594 39bf 0000 0000 0000 0000
000003a0: 0000 0000 0000 0000 0000 0000 0000 0000
000003b0: 8cd5 ac2d 9a4d 87bf fd96 a922 e910 84bf
000003c0: 0000 0000 0000 0000 0000 0000 0000 0000
000003d0: 0000 0000 0000 0000 95a3 86d4 c945 95bf
000003e0: e615 1c05 ca75 c63f 7860 238d f0cf 61bf
000003f0: 0000 0000 0000 0000 0000 0000 0000 0000
00000400: c17e a505 6841 b5bf 534e 3b9b d832 a5bf
00000410: 9fef 6c04 63d9 78bf 0000 0000 0000 0000
00000420: 0000 0000 0000 0000 54ed 5651 5172 7abf
00000430: 0000 0000 0080 253c 0000 0000 0000 0000
00000440: 0000 0000 0000 0000 0000 0000 0000 0000
00000450: 0000 0000 0000 0000 9620 ac69 eb64 9fbf
00000460: c675 8ab9 c02f 4ebf 0000 0000 0000 0000
00000470: 0000 0000 0000 0000 1379 6dfe 94ad 84bf
00000480: 0939 aafc 09b2 a7bf f1b5 29e6 182d 5a3f
00000490: 6860 238d f0cf 51bf 8215 424b 9806 49bf
000004a0: c86d 19f9 9fde 80bf ee0f 90ae ffd7 afbf
000004b0: fd85 4385 264a afbf b8df 2df8 a131 a8bf
000004c0: ed7e f0f4 7c5e 643f 0000 0000 0000 193c
000004d0: 0000 0000 0000 003c 4e62 f98f 0215 b2bf
000004e0: 2ffe d9f6 34db 88bf 34e4 e86d b68a 8cbf
000004f0: 2b38 a829 238b 55bf 0000 0000 0000 0000
00000500: 0000 0000 0000 0000 0000 0000 0000 0000
00000510: e0d6 41c5 1080 7bbf 0000 0000 0000 0000
00000520: 0000 0000 0000 0000 0000 0000 0000 0000
00000530: 0000 0000 0000 0000 da16 d206 6193 90bf
00000540: 86ef eba5 1fd6 533f dc6c ace4 a832 953f
00000550: 0000 0000 0000 0000 cfb8 dd0f 06e0 ddbf
00000560: c39f 700a 4e43 de3f 2205 95df 2c67 833f
00000570: 849e a8be 697d 77bf 0000 0000 0000 0000
00000580: 871e aa60 d0fb 96bf 5c9b f03b 291b 75bf
00000590: a8db c7c4 c233 50bf 0000 0000 0000 0000
000005a0: 0000 0000 0000 0000 0000 0000 0000 0000
000005b0: 379e c690 d6aa 8abf d8ba 40e2 9dfa 90bf
000005c0: 0000 0000 0000 d8bb 0000 0000 0000 0000
000005d0: 0000 0000 0000 0000 8991 f218 9156 9ebf
000005e0: 4114 a5b9 f73e 943f ede3 656b 83d9 72bf
000005f0: 0000 0000 0000 0000 0000 0000 0000 0000
00000600: 8d59 9a30 82fa adbf 7f49 6821 2559 a0bf
00000610: 7fd4 3ca1 3c76 7cbf 0000 0000 0000 0000
00000620: 0000 0000 0000 0000 0000 0000 0000 0ebc
00000630: 6ac3 5bed 8000 75bf 0000 0000 0000 0000
00000640: 0000 0000 0000 0000 0000 0000 0000 0000
00000650: 0000 0000 0000 0000 37af 236d 89bf a3bf
00000660: b0bc 0a63 c22d 61bf 0000 0000 0000 0000
00000670: 0000 0000 0000 0000 d169 6828 2598 6cbf
00000680: fca2 c93b 748c a2bf c373 513c 6d51 703f
00000690: cd6e 2d06 3cf6 65bf 0000 0000 0000 d03b
000006a0: cde1 deed 2428 86bf 3d87 1cc8 ccdd a9bf
000006b0: a60e 4853 8136 a9bf 45f9 e6ab 27b8 dfbf
000006c0: f745 8781 394b a73f c0fb 5990 f09e 58bf
000006d0: 0000 0000 0000 0000 90d8 25ca d82b ccbf
000006e0: 02cf cbb7 b71c a5bf bae3 119a d54a 91bf
000006f0: d74b dd0f 5a6c 73bf 0000 0000 0000 0000
00000700: 0000 0000 0000 0000 0000 0000 0000 0000
00000710: 2db9 90ca 0503 82bf 0000 0000 0000 0000
00000720: 0000 0000 0000 0000 0000 0000 0000 0000
00000730: 0000 0000 0000 0000 929f 43d2 36d3 bf3f
00000740: b86b d081 6bc9 a73f 3c91 90db 8b43 9c3f
00000750: 0000 0000 0000 0000 6100 a345 84d3 bf3f
00000760: 8f58 1529 cc43 d73f e330 4283 6ba6 92bf
00000770: 8356 37fc 520b 74bf 0000 0000 0000 0000
00000780: 1384 c833 4658 91bf cc6c 6d1f f877 76bf
00000790: c51a 5d7e ba69 74bf 0000 0000 0000 0000
000007a0: 0000 0000 0000 0000 0000 0000 0000 0000
000007b0: 98f0 f3e0 25b8 8dbf 7d2b e4e3 ca53 8dbf
000007c0: 0000 0000 0000 d8bb 0000 0000 0000 0000
000007d0: 0000 0000 0000 0000 6efc 1e4c 21c1 9abf
000007e0: ff9f 6c0b 4cb9 c1bf 22d7 19df 1d5b 70bf
000007f0: 0000 0000 0000 0000 0000 0000 0000 0000
