weights3.npy (npy, 51976 bytes, 1 tensors)

array (column-major) f8 [1, 6487]
0.6650693882830659 0.8622954518028446 -0.14244203204560518 -0.7649368060211142 -0.8433081632711248 1.2968380864858708 -1.0697128697903477 -0.34488990476574793
-0.7408241804788364 1.0269473078283726 0.24400614222118025 -0.8602422873206975 0.8097914830730192 -0.4376140892388002 -0.7295389538653121 -0.3934242936135495
-0.2646743797336215 -0.12206978684416885 0.8386622653561409 -0.6056400973155035 0.30593393945213593 -0.13306876167172987 -0.2237090649547581 0.7464730612480509
-1.1797151812012796 0.35109823092757936 0.044629384828497515 -0.23750186466079679 -0.05207711034838858 -0.23926095924913876 1.2461782942041522 -0.6005347005297079
0.17131006902418572 -0.17400385490193918 0.26759697250029457 0.1048180877723712 -0.8072093966538892 1.0315780330378186 0.43009536892918077 0.4543943970098102
-0.12846237459727028 0.12290750329555455 -0.3970475675838399 0.944833724060134 0.45290807441309855 -0.025234423324741632 -0.20464854192825663 -0.4705750983903527
-1.958297782388977 -0.63202406809537 0.3898415987870213 1.1391403567012262 0.559153849688454 -0.4085259624250924 0.6966273269195068 0.36989016417677784
0.44621400366166675 -0.2469863370792496 -0.424366863680046 0.08928817570980681 0.8844626510870741 -0.3935464275363291 -0.17412791854372592 0.7751414474063465
-0.2679382979672299 -0.22662734588666947 -0.8775628115242068 -0.007023040591820895 0.8372488681784056 -0.05072298749507648 0.8333007307637806 -0.20931125564876876
-0.5368784805252376 -0.2909596869217624 -0.2822538974849625 -0.23550188886837678 0.3695078154149921 0.9396017079452301 -0.6052371797895857 0.7976917540262181
-0.0004234679486704842 2.627231741943726e-05 -2.0209003951117222e-07 -2.010862282194082e-07 -7.222455708359722e-13 -3.032253894051971e-09 1.6604462106931057e-13 0.4475081237924865
0.4133578425188965 -0.04745551663786784 0.014333279942235246 0.3701296264063983 -0.15776410268970165 -0.014905871502327594 0.01788644602941669 0.0
0.0 0.0 -0.004012144423169255 0.0 0.0 0.0 0.0 0.6419948603117154
0.09459519596378654 0.025770551928817487 0.0 -0.26559363844091155 0.5076757750255871 -0.16403790600204415 -0.09301881873159322 0.0
-0.09350327854521248 -0.08017571772432734 -0.02401547315051501 0.0 -5.421010862427522e-20 -3.686287386450715e-18 -0.030134679575931706 0.20671384161907924
0.0 0.0 0.0 -0.36102957676345465 0.09843978591100568 -0.013272242633523704 0.006620170668159857 -0.04305287558666833
-0.23524024229261603 -0.09609942892174829 0.015223694257433376 0.0 -0.000676593900496791 0.060452844098685975 0.03696120317138791 0.0
0.0 0.0 0.0 -0.0003343009219089303 0.039308588046332374 0.0 0.0 -0.14313176413073245
-0.44982901503178635 -0.35791149669018135 0.014396482475601798 -0.01625665293484476 -0.13039620873091523 -0.32265740800451137 -0.17306996232652977 0.663198952763645
0.934409274142453 -0.11870665216492987 0.051829770308488315 0.6286448922437247 -0.08956136505464568 -0.08362583142421645 0.06224200062426673 0.0
-2.710505431213761e-20 0.0 0.014367564453352516 0.0 0.0 0.0 -0.013918932830197685 0.9625931084865664
0.03230600000962812 0.006308034534977793 0.0 -0.40558325578585713 -0.9908547700930426 -0.12214945839205622 -0.08828330543165196 0.0
0.12275692119500135 -0.1044152602893767 0.014057433678585102 0.0 0.0 -4.119968255444917e-18 -0.06519351172806585 0.26466676481504653
0.0 0.0 0.0 -0.20026870683813952 -0.4484127286044941 -0.016884102774958477 0.01446453207514992 0.0
-0.39646741308018396 -0.11497739842492208 0.09497740361844159 0.0 0.0 -0.00360193352884425 -0.007934650738710922 0.0
0.0 0.0 0.0 -0.11924889214694971 0.038565658850742104 0.0 0.0 -0.10547181934354331
-0.23043592897507814 -0.2823160533046689 -0.022105377784957223 -1.951563910473908e-18 -0.04419295733939226 0.009710907075583584 -0.1466955169232936 0.4075550266712987
0.6855223671549574 -0.07526587491906604 -0.006880355388813365 -0.6304202847674165 0.04803211033247648 -0.23723259672323532 0.04762372145397879 0.0
-5.421010862427522e-20 5.421010862427522e-20 0.013626038409116652 0.0 0.0 0.0 -0.018486403059497395 0.8653411151797084
-0.2804903985859532 -0.05834456512432173 0.0 0.2894060154841527 -0.4734671412524564 -0.17032043035104444 0.20939531135204598 0.0
0.25667833533656614 -0.018037322102405304 0.08017990472576292 0.0 -2.710505431213761e-20 -4.336808689942018e-19 -0.04876445311426484 -0.12552693435502973
0.0 0.0 0.0 -0.06792016549046491 -0.03721779742886207 -0.015953585048807443 0.00481652152352935 0.0
00000000: 47e3 0799 3f48 e53f c972 9fa1 ec97 eb3f
00000010: 9e17 9b5e 8a3b c2bf 97c1 abc0 5c7a e8bf
00000020: be60 b666 61fc eabf e39f 1a4b d9bf f43f
00000030: f2c1 fd3d 8b1d f1bf d11f 6c1b ad12 d6bf
00000040: 69c3 67e9 d4b4 e7bf e168 dd4c 606e f03f
00000050: dd79 6ee0 973b cf3f 59b7 55d5 1a87 ebbf
00000060: 3518 0cd4 cfe9 e93f 8e2a 6386 de01 dcbf
00000070: 624e 8013 6258 e7bf 096a a116 dd2d d9bf
00000080: 1ce1 42cf 6cf0 d0bf 2b4d 532e f73f bfbf
00000090: 3801 433f 52d6 ea3f 19b9 6357 6761 e3bf
000000a0: 4dbc 2bf2 6b94 d33f 00e9 bfad 6508 c1bf
000000b0: 9553 e6a6 7fa2 ccbf e7f8 2c79 1be3 e73f
000000c0: d8aa 9d06 1de0 f2bf 3b1d e1b6 6478 d63f
000000d0: 7cd8 8ea8 a9d9 a63f 9383 ba0a 7666 cebf
000000e0: e00d a2db d9a9 aabf 46a2 9765 1aa0 cebf
000000f0: 6c78 a9a6 58f0 f33f 8a6c 5c8c 9437 e3bf
00000100: c699 f703 7ded c53f d943 1721 c245 c6bf
00000110: 9e6e 590d 4f20 d13f aef7 02b3 5bd5 ba3f
00000120: 05e0 f4cc a8d4 e9bf 05b6 b2f7 5781 f03f
00000130: 8a8f edb9 ae86 db3f 3a23 a93c cc14 dd3f
00000140: 1cb5 d480 7471 c0bf 1861 16bb dd76 bf3f
00000150: fda6 6e33 3a69 d9bf 93e0 1fef 133c ee3f
00000160: beb5 ec25 72fc dc3f f119 a77b 0dd7 99bf
00000170: dfc2 6065 ec31 cabf cc81 7904 e71d debf
00000180: 290a 330e 3055 ffbf cb24 d889 8a39 e4bf
00000190: 6e47 5a2d 2af3 d83f 605e 193d eb39 f23f
000001a0: 6805 3b9d 96e4 e13f 4eb1 0b14 4a25 dabf
000001b0: 57d0 5364 c54a e63f d115 90cb 47ac d73f
000001c0: 0e9f 2f2e c58e dc3f 0238 2890 3f9d cfbf
000001d0: c5c2 40a2 d328 dbbf d5d6 9702 97db b63f
000001e0: 687a 1e9e 844d ec3f 8779 ee5a dd2f d9bf
000001f0: 21a1 bbd9 d249 c6bf b24c cc6f f5cd e83f
00000200: b65e c7ac e625 d1bf 0934 7bf7 1f02 cdbf
00000210: 3dd5 f59a fe14 ecbf 73cc 901a 31c4 7cbf
00000220: 7a0e 6e23 beca ea3f 18bf e408 5df8 a9bf
00000230: 79a0 4b4b 66aa ea3f ad1b d912 b6ca cabf
00000240: b406 79c7 1b2e e1bf b522 f260 159f d2bf
00000250: ed73 b7a6 7210 d2bf edfe 6a07 ed24 cebf
00000260: 12b9 b41b 04a6 d73f 087f dc99 3711 ee3f
00000270: 18a0 b05c 1a5e e3bf 829b 7adb b086 e93f
00000280: dbbb 8dfd 9cc0 3bbf 4856 dce7 6b8c fb3e
00000290: 90a3 51c9 c21f 8bbe cc37 3d2b 45fd 8abe
000002a0: 3bbd 83e6 6869 69bd fc2b 3c30 ff0b 2abe
000002b0: 8d68 9950 635e 473d e083 181d f9a3 dc3f
000002c0: 5a7b ca73 7474 da3f ffe7 f2e7 164c a8bf
000002d0: d43f c544 c45a 8d3f 318e 2c2c 34b0 d73f
000002e0: a87c c436 9d31 c4bf 868d f734 f886 8ebf
000002f0: e0b9 f312 d350 923f 0000 0000 0000 0000
00000300: 0000 0000 0000 0000 0000 0000 0000 0000
00000310: ac75 59d1 096f 70bf 0000 0000 0000 0000
00000320: 0000 0000 0000 0000 0000 0000 0000 0000
00000330: 0000 0000 0000 0000 1ea5 27ce 388b e43f
00000340: c2ee 0509 6437 b83f 9dc2 ef76 9863 9a3f
00000350: 0000 0000 0000 0000 7e47 c875 7cff d0bf
00000360: 6c9a 5644 e13e e03f 14a3 cab0 31ff c4bf
00000370: ef5f 5dd0 14d0 b7bf 0000 0000 0000 0000
00000380: aaa3 6bb3 d4ef b7bf 2b2f 8f55 6586 b4bf
00000390: 6322 1e1f 8397 98bf 0000 0000 0000 0000
000003a0: 0000 0000 0000 f0bb 0000 0000 0000 51bc
000003b0: d529 041d a0db 9ebf 4836 b162 9975 ca3f
000003c0: 0000 0000 0000 0000 0000 0000 0000 0000
000003d0: 0000 0000 0000 0000 d99d 45cc 1b1b d7bf
000003e0: 49ee 1c8d 5933 b93f 15ca 7140 7a2e 8bbf
000003f0: d20d 3888 c01d 7b3f 7a78 49c9 060b a6bf
00000400: 96c9 ac2d 5a1c cebf 7118 62e0 f899 b8bf
00000410: a809 aea7 992d 8f3f 0000 0000 0000 0000
00000420: fd73 7056 ae2b 46bf 1b45 b5d8 acf3 ae3f
00000430: 7910 af2d 94ec a23f 0000 0000 0000 0000
00000440: 0000 0000 0000 0000 0000 0000 0000 0000
00000450: 0000 0000 0000 0000 c0aa d086 a3e8 35bf
00000460: 5acc 3858 4120 a43f 0000 0000 0000 0000
00000470: 0000 0000 0000 0000 83ea fa42 2452 c2bf
00000480: 599e 16a3 ffc9 dcbf 3564 499f 05e8 d6bf
00000490: 11fb 472b e77b 8d3f 9652 ca82 95a5 90bf
000004a0: 1ac6 02ae d2b0 c0bf 9e41 cc41 6ba6 d4bf
000004b0: 0a63 0e12 2827 c6bf ce8f 9b02 ed38 e53f
000004c0: 7eab 3047 aee6 ed3f 94b3 dd24 8f63 bebf
000004d0: cc48 de80 6e89 aa3f e87e 9fe4 db1d e43f
000004e0: f412 e55d 7eed b6bf 925c 11a3 8068 b5bf
000004f0: 3ad8 3cfa 2ede af3f 0000 0000 0000 0000
00000500: 0000 0000 0000 e0bb 0000 0000 0000 0000
00000510: fd41 9adb bd6c 8d3f 0000 0000 0000 0000
00000520: 0000 0000 0000 0000 0000 0000 0000 0000
00000530: a148 688a 8781 8cbf c8c0 0910 90cd ee3f
00000540: 0e09 037b 698a a03f 35ee 7920 74d6 793f
00000550: 0000 0000 0000 0000 0bf3 d978 13f5 d9bf
00000560: b253 1410 15b5 efbf 459b 04d9 2f45 bfbf
00000570: f799 9c15 bc99 b6bf 0000 0000 0000 0000
00000580: d7e2 e361 ff6c bf3f 646d 2560 f5ba babf
00000590: aa5a 52cf 24ca 8c3f 0000 0000 0000 0000
000005a0: 0000 0000 0000 0000 0000 0000 0000 53bc
000005b0: 378f c8a0 85b0 b0bf f9ff cdde 4cf0 d03f
000005c0: 0000 0000 0000 0000 0000 0000 0000 0000
000005d0: 0000 0000 0000 0000 4219 24ad 67a2 c9bf
000005e0: ecd9 1d4d cbb2 dcbf 0a87 f6f4 104a 91bf
000005f0: e2ba b7a1 949f 8d3f 0000 0000 0000 0000
00000600: b4fb 46db b85f d9bf c2a2 03a6 286f bdbf
00000610: 6c73 666a 7050 b83f 0000 0000 0000 0000
00000620: 0000 0000 0000 0000 8518 ae56 cd81 6dbf
00000630: c56e 6ccb 0a40 80bf 0000 0000 0000 0000
00000640: 0000 0000 0000 0000 0000 0000 0000 0000
00000650: 0000 0000 0000 0000 33fa da6b 1887 bebf
00000660: 7a77 06c7 e0be a33f 0000 0000 0000 0000
00000670: 0000 0000 0000 0000 5fea ba7e 3300 bbbf
00000680: 40bb 62ad ec7e cdbf 0014 055a 7711 d2bf
00000690: 59c4 9bca caa2 96bf 0000 0000 0000 42bc
000006a0: e7f0 f894 75a0 a6bf dfd9 6ee2 4fe3 833f
000006b0: dbe2 d32f ebc6 c2bf a6e9 b7ad 6115 da3f
000006c0: ed6c 739a ccef e53f 433f 48d7 9f44 b3bf
000006d0: 74b4 1356 932e 7cbf 36f4 3929 672c e4bf
000006e0: f45a 122e aa97 a83f 8e58 3c42 a35d cebf
000006f0: e63a 51ec 2262 a83f 0000 0000 0000 0000
00000700: 0000 0000 0000 f0bb 0000 0000 0000 f03b
00000710: e9c4 baea f7e7 8b3f 0000 0000 0000 0000
00000720: 0000 0000 0000 0000 0000 0000 0000 0000
00000730: 51af 3e82 19ee 92bf b097 b2d9 dfb0 eb3f
00000740: f331 3100 8ef3 d1bf 9f73 37be 56df adbf
00000750: 0000 0000 0000 0000 6849 f1ce a085 d23f
00000760: 033c da1f 494d debf 9264 1953 0fcd c5bf
00000770: daac 182f 77cd ca3f 0000 0000 0000 0000
00000780: 7a2f f7f7 6a6d d03f 8924 2632 6078 92bf
00000790: bcf2 9794 ab86 b43f 0000 0000 0000 0000
000007a0: 0000 0000 0000 e0bb 0000 0000 0000 20bc
000007b0: 258b aa86 a7f7 a8bf 0537 e93e 4411 c0bf
000007c0: 0000 0000 0000 0000 0000 0000 0000 0000
000007d0: 0000 0000 0000 0000 833c 8549 3763 b1bf
000007e0: ba7d 920d 360e a3bf 2e82 27f8 2256 90bf
000007f0: c1dc c826 7dba 733f 0000 0000 0000 0000
