weights8.npy (npy, 51976 bytes, 1 tensors)

array (column-major) f8 [1, 6487]
-0.4538770451174509 0.06564943662929945 0.07176900743995883 0.07725881199618267 0.14854914152948018 -0.02982922299809945 1.1870516597535044 0.10766558388914368
-0.21942360978801384 -0.007042113442681605 -0.014734071782832878 -0.6409935211762067 0.5924618274524704 0.23911338884455768 -0.25511769560481384 0.2730875741906385
-0.6261428308886426 1.1756166147639848 -0.6461499862186766 0.1834093582190704 -0.14786232531617932 0.5200731700778161 0.055326272468345504 -0.4475856315207058
0.6420358760297922 0.3999498788890912 -1.555094123546076 -0.16225091182213647 0.4736827032858875 -0.449778266247923 -0.8779096056051137 1.2687938342135818
-0.6480037477203653 -0.5609663430026716 0.16417329923473906 -0.3861375256650763 1.1321459208686595 -0.052644132303814074 0.07782689029493112 -0.03185009763977119
0.35907530188659986 -1.5032327419605656 0.6293033300081067 0.055332973311123225 0.4755982624166013 -0.8111747779512777 1.209146350376745 -0.4310641514523118
1.055834555215187 0.7387771495862556 -0.9686931463063305 1.1294689630915062 -0.582099875790187 -0.594362876768693 -0.9995457928058151 0.016644468742945336
0.7818446226404446 -0.40321960652053884 0.29791871730852754 -0.5698536265723801 -0.6821122686690269 0.6424943384252676 -0.209768517067229 -0.25437140651045637
0.35472471089759816 0.5952392868549454 -0.6649265762484298 -0.399184438205128 -0.02614118115823192 0.5792624571919305 -0.3412056798508048 1.064071356166163
0.23838842056407583 0.4964865414959834 0.1524877276070583 -1.399389913764813 0.5597997935149374 -1.4587867703355317 0.3121186525911203 -0.5577809323522009
-0.000617649456836535 -6.95593790560486e-05 8.461986939217713e-08 2.7276072655739e-07 4.487226452102301e-12 2.960678951044663e-09 -2.364552485666454e-13 -0.5230928273127261
-0.4435743258083026 0.07304972550510054 -0.011967412175355935 -1.3499425444811484 0.00044742448781392855 -0.16792590127894413 -0.025753972093183027 0.0
0.0 0.0 -0.030228461053134384 0.0 0.0 0.0 5.421010862427522e-20 -0.512541903546297
0.07819015472860456 -0.048494352863736094 0.0 0.2836182954607911 0.11874049615158139 0.062138073183523185 -0.1058445323469714 0.0
-0.6442916008434437 0.0028871352394789092 -0.02041830803008842 0.0 -0.0004231621735475048 -0.007193756950307613 -0.018094973008319627 0.2630490073700281
0.0 0.0 0.0 -0.24912450893499669 0.19310170298917165 -0.015383957034755258 -0.024128997472802633 -0.00024662051102502
0.36483692203336504 0.5038923463855619 -0.24876445391648022 0.0 0.0010370817840334198 0.035123964339913605 -0.005237819004129401 0.0
0.0 0.0 0.0 0.82774056558426 -0.06455914826101117 0.0 0.0 -0.0023151799803276777
0.5075101834223154 0.14392577421347952 0.00833118224801475 0.0034979250336880335 0.1543844419827983 0.36674919596212435 0.07059505746927684 -1.0264121613639738
-0.8649814681579142 0.29814152333805843 0.060844867497210756 -0.2570402245989713 -0.05141507842069356 -0.04876629200453382 -0.052884351693896194 0.0
-0.0002115810867737524 0.0 -0.03841536813932253 0.0 0.0 0.0 0.004850294942138979 -0.049853979406415866
0.4998540876548961 -0.12724707396118187 0.0 0.06268235400518454 -0.0553824433196392 0.06866782768018313 -0.0729482390720238 0.0
-0.5509315144500699 0.006652645263529137 -0.14232214926205208 0.0 0.0 -0.006135851516438764 -0.015188377071048493 0.08931019125814443
7.453889935837843e-20 0.0 0.0 -0.054626298281187896 0.43796520326199057 -0.012416222078864322 -0.026218625400324123 0.011595721385647286
0.6700522499541816 0.46584572982333994 -0.24604614585312595 0.0 0.0 0.03793772336321217 -0.026548744795201452 0.0
0.0 0.0 0.0 0.7515699933688396 -0.054940803325536566 0.0 0.0 -0.09280955142374787
0.07730381920523348 0.22885407780081735 0.0756022366685026 -0.003148276692954858 0.08221775010708146 -0.1184738831734463 -0.3912856555350848 1.1221004147264066
-0.9267053080308734 0.3148941288002748 0.18889528885055057 -0.032938835559071074 0.14280567044437667 0.142392919130631 -0.05004458620320321 0.0
-0.0004231621735475048 -0.0007942341673239762 -0.046820761921372085 0.0 0.0 0.0 -0.015736126242119897 -0.3411912475613385
0.5994757976299216 -0.12215080015378743 0.0 -0.4652787520152838 -0.37515599966423513 0.09469691113184077 -0.20520556264841147 0.0
-0.5594046409487332 -0.06879435009668725 -0.2555310073252721 0.0 -0.0002115810867737524 -0.0033852973883800384 0.004821689850534075 0.12416779911199456
7.453889935837843e-20 0.0 0.0 -0.44021608906032444 0.07639261888255618 -0.06508126428008626 -0.024914964460549895 0.011595721385647286
00000000: f7cf 4b4e 520c ddbf c0db 52c7 66ce b03f
00000010: 4f2d d223 745f b23f 78f6 d9c6 3bc7 b33f
00000020: 30e7 5b84 a803 c33f 07bc f744 8d8b 9ebf
00000030: 73dc 94e1 29fe f23f e667 b5c1 f88f bb3f
00000040: a240 01a6 1216 ccbf a389 e5ee 30d8 7cbf
00000050: 25b0 8da3 e52c 8ebf 45ca 4cd8 0483 e4bf
00000060: 1a2d a181 72f5 e23f f4c1 8f7c 449b ce3f
00000070: 4d3a d02b d953 d0bf e1ef 054e 447a d13f
00000080: 9d54 a9b0 5c09 e4bf 8eba 105e 53cf f23f
00000090: 96d7 63bc 42ad e4bf 9a66 aa35 f579 c73f
000000a0: 8291 c515 27ed c2bf 4a5c 207d 70a4 e03f
000000b0: ebe5 b8a5 b953 ac3f bb9e 6234 3ea5 dcbf
000000c0: 6c03 4dd2 8e8b e43f 298a 7760 c798 d93f
000000d0: 9c50 2d60 aae1 f8bf 48d9 024c a3c4 c4bf
000000e0: f1cc d241 d150 de3f 5721 ffc7 2ac9 dcbf
000000f0: 1262 9de2 d517 ecbf 3e05 75c3 fa4c f43f
00000100: f49e 045b 72bc e4bf 5b4d 2bb0 6ff3 e1bf
00000110: de78 8b73 a103 c53f ec59 1f2b 7ab6 d8bf
00000120: 22e4 860a 451d f23f 8571 24f5 2bf4 aabf
00000130: 84ec 908c 76ec b33f 6e75 79ef a74e a0bf
00000140: 9edf 99f9 16fb d63f dcf3 8fc6 3d0d f8bf
00000150: 43c2 b4bc 4023 e43f 85ff 857d 9a54 ac3f
00000160: 5447 c7b1 3370 de3f 6e81 d4ce 24f5 e9bf
00000170: 5022 efd7 a958 f33f 8acd 3d18 8e96 dbbf
00000180: ca2c 4ac6 b2e4 f03f 8429 10fa 0fa4 e73f
00000190: 4fd7 e7c4 88ff eebf 6833 250c 4e12 f23f
000001a0: d4c8 30eb 8fa0 e2bf 4cb2 b54b 0505 e3bf
000001b0: 6092 5e75 47fc efbf 1f17 a463 3f0b 913f
000001c0: d969 9903 df04 e93f 2326 c79b 59ce d9bf
000001d0: 9335 edaa 1911 d33f f254 34ac 3d3c e2bf
000001e0: 6248 c41b ddd3 e5bf 91da 6c49 508f e43f
000001f0: 905f 44dc b1d9 cabf e1fe ff01 9f47 d0bf
00000200: e8d8 1846 cfb3 d63f 68c3 ca42 330c e33f
00000210: e04d 6719 1447 e5bf 2d71 cae2 3c8c d9bf
00000220: 7a19 9df8 c0c4 9abf 0014 ae6b 5189 e23f
00000230: 35cb 0a59 50d6 d5bf 2e81 b5af 6f06 f13f
00000240: a8ad 0803 8383 ce3f 0548 a87c 6fc6 df3f
00000250: cc8c 8ec5 b784 c33f da8d 9fad e663 f6bf
00000260: e188 ae41 e1e9 e13f 6edb e6cb 3057 f7bf
00000270: bb6d 5683 c0f9 d33f 781f d965 57d9 e1bf
00000280: de34 d71b 383d 44bf 633c 5f08 0d3c 12bf
00000290: 8443 437c 08b7 763e fb0c 9f5c fe4d 923e
000002a0: e0d0 d9f7 2abc 933d f4ad dc13 9a6e 293e
000002b0: 36e7 215d 99a3 50bd 1992 422b 2dbd e0bf
000002c0: 3a48 ac91 8563 dcbf fdb3 0606 63b3 b23f
000002d0: 1089 49df 5e82 88bf af68 805a 5d99 f5bf
000002e0: e633 e78a 8952 3d3f 5c7b 128f 987e c5bf
000002f0: 4f7e 87cf 3f5f 9abf 0000 0000 0000 0000
00000300: 0000 0000 0000 0000 0000 0000 0000 0000
00000310: e4c7 86ae 35f4 9ebf 0000 0000 0000 0000
00000320: 0000 0000 0000 0000 0000 0000 0000 0000
00000330: 0000 0000 0000 f03b 28f3 3147 be66 e0bf
00000340: 8fb4 6d1d 4504 b43f e74c 2e77 40d4 a8bf
00000350: 0000 0000 0000 0000 8849 e359 cd26 d23f
00000360: 1c8e aef3 c665 be3f 74c2 51c0 8fd0 af3f
00000370: 0d02 e494 a018 bbbf 0000 0000 0000 0000
00000380: f3b8 566b 099e e4bf e39a d8ed c2a6 673f
00000390: 8e60 ea74 89e8 94bf 0000 0000 0000 0000
000003a0: 4f1d 40b2 7bbb 3bbf 481f 646d 3377 7dbf
000003b0: ddc2 2b15 7d87 92bf f691 f980 cbd5 d03f
000003c0: 0000 0000 0000 0000 0000 0000 0000 0000
000003d0: 0000 0000 0000 0000 e701 41d9 4fe3 cfbf
000003e0: 8df8 917d 8eb7 c83f c05b c7c2 9f81 8fbf
000003f0: 65b2 1f9c 45b5 98bf 3923 8507 9b29 30bf
00000400: 366c 20f6 7c59 d73f 3bc8 8dd7 e21f e03f
00000410: 2a42 fd7c 83d7 cfbf 0000 0000 0000 0000
00000420: 8ef6 1f16 d6fd 503f 30a6 4aac c4fb a13f
00000430: 469f 3355 4074 75bf 0000 0000 0000 0000
00000440: 0000 0000 0000 0000 0000 0000 0000 0000
00000450: 0000 0000 0000 0000 da38 58c8 d97c ea3f
00000460: e84b 70c6 f286 b0bf 0000 0000 0000 0000
00000470: 0000 0000 0000 0000 b976 98c9 48f7 62bf
00000480: 1ff2 05ff 853d e03f 2431 a6e6 286c c23f
00000490: 7681 565a f00f 813f b71e f433 aea7 6c3f
000004a0: e3e5 a990 dec2 c33f b176 9f9e d178 d73f
000004b0: 1ffc 1687 8412 b23f 2a66 9428 2f6c f0bf
000004c0: 3e4c ac9d edad ebbf e042 142f c014 d33f
000004d0: b258 0ff8 0e27 af3f 4f2e 9ad7 5873 d0bf
000004e0: 8b22 adc0 1353 aabf 6a02 9d3a e5f7 a8bf
000004f0: 25ab fd61 a813 abbf 0000 0000 0000 0000
00000500: 4f1d 40b2 7bbb 2bbf 0000 0000 0000 0000
00000510: 2cf6 a4db 2dab a3bf 0000 0000 0000 0000
00000520: 0000 0000 0000 0000 0000 0000 0000 0000
00000530: 1b66 7022 e7dd 733f dc84 40f6 7586 a9bf
00000540: 05fb cfff 9bfd df3f 6565 96d2 a149 c0bf
00000550: 0000 0000 0000 0000 6a12 7d64 f30b b03f
00000560: 572d a96d 165b acbf e37a 2cfa 3694 b13f
00000570: 4479 1d5d bcac b2bf 0000 0000 0000 0000
00000580: fcc2 9c20 3ba1 e1bf eb81 6bdd cd3f 7b3f
00000590: 4fd9 49b8 9c37 c2bf 0000 0000 0000 0000
000005a0: 0000 0000 0000 0000 4f1a 8a19 e821 79bf
000005b0: 4a50 6576 151b 8fbf 703a a75e 08dd b63f
000005c0: 0000 0000 0000 f63b 0000 0000 0000 0000
000005d0: 0000 0000 0000 0000 6c0d 3d69 faf7 abbf
000005e0: a1f5 3234 9f07 dc3f 5815 261e ad6d 89bf
000005f0: 96d6 8f2a 0ed9 9abf 9bc2 ff60 7fbf 873f
00000600: fd42 856a 1171 e53f caa3 a49b 6ad0 dd3f
00000610: a67d dfaa 707e cfbf 0000 0000 0000 0000
00000620: 0000 0000 0000 0000 e966 42c2 926c a33f
00000630: eab9 941a 982f 9bbf 0000 0000 0000 0000
00000640: 0000 0000 0000 0000 0000 0000 0000 0000
00000650: 0000 0000 0000 0000 4092 c583 dc0c e83f
00000660: 4690 ff72 3321 acbf 0000 0000 0000 0000
00000670: 0000 0000 0000 0000 dd15 1fe4 5dc2 b7bf
00000680: dba5 57df 2eca b33f dcf9 da25 174b cd3f
00000690: 46e4 fe0d ab5a b33f 6f85 eb2d 6aca 69bf
000006a0: 4a51 dcf3 380c b53f c7fa a8ed 4d54 bebf
000006b0: f1b1 7afd d20a d9bf 4c3f 8190 1ff4 f13f
000006c0: ecb5 e0e3 91a7 edbf ea92 39b4 3927 d43f
000006d0: aea4 fd87 b82d c83f 5133 fdea 5bdd a0bf
000006e0: 45f8 1eca 7447 c23f 588c 6c61 ee39 c23f
000006f0: 1552 2baa 719f a9bf 0000 0000 0000 0000
00000700: 4f1d 40b2 7bbb 3bbf 6729 13e3 8406 4abf
00000710: c1c2 7312 e4f8 a7bf 0000 0000 0000 0000
00000720: 0000 0000 0000 0000 0000 0000 0000 0000
00000730: 9072 4d8e 211d 90bf db45 7dd0 13d6 d5bf
00000740: 840c 32de e72e e33f 503b d75b 4645 bfbf
00000750: 0000 0000 0000 0000 467a db87 20c7 ddbf
00000760: 5d30 5d4f 8e02 d8bf f1ed 5788 0e3e b83f
00000770: 571f 4406 2d44 cabf 0000 0000 0000 0000
00000780: b25f c38f a4e6 e1bf c299 d0ab 819c b1bf
00000790: dcdc e4b9 9e5a d0bf 0000 0000 0000 0000
000007a0: 4f1d 40b2 7bbb 2bbf 4f1d 40b2 7bbb 6bbf
000007b0: 5d11 8383 e8bf 733f 15fe 66fc 75c9 bf3f
000007c0: 0000 0000 0000 f63b 0000 0000 0000 0000
000007d0: 0000 0000 0000 0000 b9f9 6b1a 802c dcbf
000007e0: 85a1 c177 778e b33f 5451 aa6d 2aa9 b0bf
000007f0: 6a00 28f6 4e83 99bf 9bc2 ff60 7fbf 873f
